examples/variational_autoencoder/autoencoder_models/saved_models/model_dim5.pth (torch, 904483 bytes, 22 tensors)

encoder.0.weight f4 [128, 784]
00000000: 70d4 0f3b 2d53 10bd 2056 7abc bfbb 05bd
00000010: 98de c1bc 8e15 a1bc e87a 823c 6828 f1bc
00000020: 5e08 a03c 833a f4bc 685f a33c 40c8 aa3a
00000030: 6ce5 ac3b 519a 2b3b 5648 bb39 8db8 37bc
00000040: 80d9 be3b c3e0 cdbc 4c31 d1bc 185d 753c
00000050: f3db 0e3d 86ee a73c 908d 8f3c 9894 43bc
00000060: 0e8a c03c f001 9bbc e355 9abc 0054 eabb
00000070: 20dd 8a3a 5442 c9bb 4627 2bbc b184 fabc
00000080: a544 adbc 6c4d a8bc 0890 473c 7137 d53c
00000090: 83e2 cb39 2378 263d f71d 91bc 8a06 a13c
000000a0: f305 c23c cee0 21bb 77c0 d23c 59e3 44bc
000000b0: 8c2c 1b3d b03c dc3c d1d3 a0bb bacf a9bc
000000c0: d166 f9bc f058 e0bb 78a3 d63c 1c15 9a3c
000000d0: 2cc8 b73c 8c35 d7bc 50df e03b de83 d3bc
000000e0: d6b7 923c 84df 493c f617 b73c b543 e2bc
000000f0: 4aa9 b3bc 052a aabc 51b8 193d e352 d3bb
00000100: a26b 9fbb ce70 263c 7139 6abc 8e8c 43bb
00000110: 874d 00bd c79a 1abc e2ed 373c 10b5 60bc
00000120: 996a 733c c8cb c73a 25c8 de3c 619f 95bc
00000130: 4bb2 01bc 7fc0 a43c 6bb7 8a3c b376 553c
00000140: 99ce c83b a2e7 3d3c c09d dfbb e0a4 2ebb
00000150: 7c36 4f3c 23f8 09bd 2fa4 9d3c 42db 61bc
00000160: 5606 adbc 164c de3a feaa bc3c c0d0 fd3c
00000170: 28bd fe3c 10e5 e83c 6c53 c03c 8024 f43c
00000180: 7660 c83c fa19 8abc 703b 063d a71c bd3b
00000190: 7978 01bc 4b54 883b 5fb6 113d 471e 99bb
000001a0: 4bbd 0cbd c7eb 8cbb c295 fc3c 8092 a03c
000001b0: 678c 0dbd 7056 ecb9 dcf1 3c3c 561f fe3c
000001c0: a750 90bc 921f 8d3c f134 d5ba 26bc 7f3a
000001d0: 8c0b 10bd 4cb2 3bbc c512 a93c 70e8 1dbd
000001e0: 463d 1abd 19d8 9fbc c239 043c 322f 08bc
000001f0: f467 bdbc e565 af3b 301d ecbc 33cb 923c
00000200: 6c99 9ebc e75b e8bc d354 13bd 79ce ef3c
00000210: b9fc e5bc 70d5 313c cb5d f93c ca57 c53c
00000220: 258a 07bd f1c7 99bc c552 adbc f406 2b3c
00000230: f0d9 d73b c012 9a3b e728 f2bb d0f1 83bb
00000240: 4ce0 9cbc f919 95bc 4c15 003d db55 3a3c
00000250: 635f 8e3c 8181 bfbb 03a8 fcbc 4c34 ad3c
00000260: c5da d0bc e8f4 513c 4f84 61bc d9f0 96bc
00000270: 5436 323b 6e46 d1bc b936 1fbd ec95 84ba
00000280: b7cf 8a3b a15e 99bc 078b 863c 1cc7 bcbc
00000290: 7c03 12bd 1b20 0abd f882 4ebc d8dd c03b
000002a0: f6da f03c f089 db3b 8294 42bb ba6f 52bb
000002b0: 3e98 093d a5c0 dbbc 9148 d83c c8fd 933c
000002c0: f250 f33c 6427 36bc 100a 80b6 dc4b a0bc
000002d0: 0691 94bc c5cf e8bc e81b 9ebc 9ec1 723c
000002e0: cb86 a63b 699e c7bc ae42 c8bc 7e48 ef3c
000002f0: cc5a 8dbc f373 e6bc 553f b23c 0833 6e3c
00000300: eb3e c93c 6ee8 b6bb 8aa7 0abd 8e73 cebc
00000310: 7e8a eb3c 6ad0 d5bc 6421 8cbc 71e5 e0bc
00000320: e2bf 733c 0def 183d 47ef d43c f239 09bd
00000330: cfcd 06bd 20e8 5fba dbed b9bc 6626 ac3c
00000340: ce67 8ebc cadc a03a ef8a f03c 1131 b2bc
00000350: 5c28 c73c 21c6 66bc 62ba 133d b05b ee3c
00000360: afa0 28bd 22c8 873b e04b 26bc 59c4 043d
00000370: 925b 563c cc19 8cbc 27e3 08ba fee5 a4bc
00000380: 00bc 23b8 6634 733c e7e6 b83b 3a67 f4bb
00000390: 5ce0 28bc bc4a 7c3c 43bb 0e3d 9637 833b
000003a0: d55c 49bc fa79 fabb 9f5e c5bb b569 a43c
000003b0: 50d5 ce3c bb52 dd3c e6d9 cd3c 0524 9c3c
000003c0: 130e 933c 1fc1 193d 52b0 9abc 6a03 3a3c
000003d0: 9768 fe3b 96fc c1bc 3e58 3c3b fcff 9fbc
000003e0: a810 02bc 6f8a 1abc 6a0d 4bbc 7212 43bc
000003f0: d654 e93c e0a0 6e3b 83ae f9bc ae90 04bc
0.002194669 -0.035235573 -0.015279323 -0.03264975 -0.023665711 -0.019663598 0.015927747 -0.029438213
0.01953524 -0.029813057 0.019942954 0.001302965 0.0052763727 0.002618451 0.00035721314 -0.011213434
0.005824268 -0.025131589 -0.025536202 0.014975809 0.03487773 0.020499479 0.017523557 -0.011937283
0.02350333 -0.018921822 -0.018839782 -0.007151127 0.0010594465 -0.00614194 -0.010446375 -0.03058085
-0.021150896 -0.02054473 0.012180336 0.026027413 0.00038887942 0.040641915 -0.017714484 0.019656438
0.023684477 -0.0024700644 0.02572654 -0.0120170945 0.03788428 0.026884407 -0.004908063 -0.020728935
-0.030444534 -0.0068465397 0.026200995 0.018808894 0.022434317 -0.02627065 0.0068625584 -0.025819715
0.017909925 0.012321357 0.022350293 -0.027620176 -0.02193131 -0.02077199 0.037529293 -0.00644909
-0.0048651258 0.010158731 -0.014295922 -0.0029838416 -0.031323936 -0.009436316 0.011226149 -0.013715044
0.014856958 0.0015243227 0.027195046 -0.018264474 -0.0079160435 0.02011132 0.016933164 0.013028788
0.006128144 0.01159087 -0.006824225 -0.0026648566 0.012647267 -0.033683907 0.019243328 -0.013785185
-0.021121185 0.0016959931 0.023030754 0.030983329 0.031096056 0.028429538 0.023477279 0.02980256
0.024460059 -0.01685809 0.032771528 0.005771238 -0.007902258 0.004160439 0.035574313 -0.004672799
-0.03436021 -0.004300568 0.030833129 0.019601107 -0.034557726 -0.0004507783 0.011532273 0.031020802
-0.017616583 0.017226968 -0.0016266388 0.00097555143 -0.035167262 -0.0114560835 0.020638833 -0.038551748
-0.03765609 -0.019512223 0.008070411 -0.0083120335 -0.023120858 0.005352723 -0.028822511 0.017919159
-0.019360267 -0.028364135 -0.035969567 0.029273259 -0.02807461 0.01085411 0.030440232 0.024089713
-0.03309073 -0.018772097 -0.021157632 0.0104386695 0.0065872595 0.004701942 -0.00739013 -0.004026629
-0.019149922 -0.018200861 0.03127031 0.011373009 0.017379468 -0.0058442955 -0.030841833 0.021143101
-0.025494942 0.012814738 -0.013764455 -0.018425392 0.0027193027 -0.025546279 -0.038870547 -0.0010115481
0.0042361873 -0.01872188 0.016423715 -0.023044161 -0.035647854 -0.033722024 -0.012604468 0.005885821
0.029401284 0.006699793 -0.0029690568 -0.0032110051 0.033592455 -0.026825259 0.02640179 0.018065348
0.029701684 -0.01111779 -3.8158687e-06 -0.019567423 -0.018135559 -0.028419385 -0.019300416 0.01481667
0.0050819865 -0.024367528 -0.024445858 0.029209372 -0.01725521 -0.02813146 0.021758715 0.014538534
0.024566134 -0.005581907 -0.033851184 -0.025201585 0.028752562 -0.026100356 -0.017105766 -0.027453156
0.014877291 0.03733735 0.025993003 -0.033502527 -0.032911118 -0.0008541364 -0.022696426 0.021014404
-0.017383482 0.0012272832 0.029363124 -0.021751912 0.024311237 -0.014085324 0.03606642 0.029096454
-0.041168865 0.0041437307 -0.010149926 0.032413814 0.0130833555 -0.017102145 -0.00052218366 -0.0201292
-3.9037317e-05 0.014844036 0.00564276 -0.0074585946 -0.010307398 0.015398677 0.034846555 0.004004429
-0.012290199 -0.0076439353 -0.0060232426 0.020069936 0.0252482 0.027016988 0.025128316 0.019060144
0.017951047 0.03753769 -0.018882904 0.011353353 0.007763933 -0.023680013 0.002873912 -0.019531243
-0.0079385415 -0.009432419 -0.012393335 -0.011906253 0.028482836 0.0036411807 -0.030478721 -0.008091135

encoder.0.bias f4 [128]
00000000: efe0 a93c 4b0b c4ba 597c cd3c 58cf 52b9
00000010: 3625 c238 7ae3 3bbc d2c0 cebc c3e5 99bc
00000020: c0d1 c23d 60ca ab3c a635 1b3e 931d 2ebd
00000030: 5dc6 133d 1701 ce3a 7e9d 443d f24d 193d
00000040: 79a1 783c 18b5 c13c 17d2 343d f938 ae3b
00000050: 7726 1d3d f02f 01bc 5bee d63b b74c fb3d
00000060: e3e8 993d 8ff2 023e 2911 133d 5198 b0ba
00000070: dc6b 04bd 9013 b23c e8ce 253d 6d08 cd3c
00000080: a7eb 16bc 4192 2abd df1b 883c fb51 66bc
00000090: 375e 083d 6934 a73c 7a71 d13d db09 3c3d
000000a0: 7df1 4c3d 9554 ab3c 6788 b23b 2700 a7bc
000000b0: d1cf e33c a526 963c 1c57 323b d96c c4bc
000000c0: 81a1 eb3c 9330 af3c f6d4 213e d901 08bc
000000d0: f173 e03c 635f f43c 027b 9ebc e97d e2bc
000000e0: 4f4f 993b c0df 133e ca4b 23bc 82d9 853d
000000f0: 87cb c53b 9801 34bd bf57 f93c 21a3 b5bc
00000100: 393c 943d 96de 12bd 75cb 1f3c ae7f d23b
00000110: eaa1 09bd 3f02 2d3c 5559 08bd 2786 613d
00000120: 9bc2 073d 152f de3b 3cb5 863d 788d 7f3d
00000130: eb1d 5a3c 34cd 163d e3d7 eabb 7cc8 f13c
00000140: d978 30bb 4c7a caba 741f ffbc f819 26bd
00000150: f7a8 dc3a 7afe 9d3d 7e88 43bd a15c d83c
00000160: 9bf9 c8bc e7da 063c cebd b23c d43e 203d
00000170: 3b4c b23b baa3 fa3c 08d7 bfbc f318 2ebc
00000180: 0f61 ad3d 0e68 163d 3799 a7bc 6860 343c
00000190: 47e6 853d ca11 613d 5b1d ab3d f1b6 a23c
000001a0: 11ad 9f3c 110d a03d 8bc8 f93c d701 8e3d
000001b0: 78d0 993d 7586 c13d 8552 6c3d 9b44 b4ba
000001c0: b4fb a53d 4fa9 593c 7090 433d 2c62 053d
000001d0: 1dab b03b 082e 9ebb cb90 14bd c827 063d
000001e0: dd09 8fbd dcaf a03c db2f 7b3c 3daa 973d
000001f0: e455 f6bc 33c6 f1bc 5d69 1abd 621d a83c
0.02073714 -0.0014956979 0.025083708 -0.00020104402 9.257572e-05 -0.011467809 -0.025238428 -0.018786317
0.09512663 0.020970523 0.15157184 -0.042508673 0.036077846 0.0015716878 0.04800176 0.03742785
0.015175217 0.023645923 0.04414567 0.0053168503 0.03836676 -0.007884964 0.006559176 0.122704916
0.07515123 0.12787841 0.035905037 -0.0013473128 -0.032329425 0.021737844 0.040480524 0.025028432
-0.009211457 -0.041643385 0.016614852 -0.014057632 0.033292975 0.020410733 0.10226722 0.045907836
0.05003499 0.020914355 0.0054483893 -0.020385815 0.027809056 0.018328974 0.0027212566 -0.023977684
0.028763535 0.021385467 0.15803894 -0.008301222 0.027399035 0.02983064 -0.019345764 -0.02764793
0.004678644 0.14440823 -0.0099668 0.06535627 0.0060362252 -0.043946832 0.030437348 -0.022172512
0.07238049 -0.035856806 0.009753098 0.006423912 -0.03360168 0.010559618 -0.03328832 0.05505958
0.033144575 0.006780515 0.065775365 0.062390774 0.013312797 0.03681679 -0.007166849 0.029514544
-0.00269275 -0.0015447824 -0.031142928 -0.04055211 0.0016835023 0.07714553 -0.04773759 0.026411356
-0.024533084 0.008230901 0.021819022 0.039122418 0.0054412163 0.030595649 -0.023417965 -0.010626066
0.08465778 0.036720328 -0.0204588 0.011009313 0.065380625 0.054948606 0.083552085 0.019862624
0.019491704 0.07814992 0.030491134 0.06933945 0.075104654 0.09449474 0.057695884 -0.0013753356
0.08104649 0.013284995 0.04774517 0.032564327 0.005391492 -0.0048272647 -0.036270898 0.032752782
-0.06984303 0.019615106 0.015331234 0.07405517 -0.030070253 -0.029513454 -0.03769814 0.020521823

encoder.2.weight f4 [64, 128]
00000000: 1149 93bd 3732 5d3d 1f96 3dbd 1179 97bc
00000010: 4d25 803d 8e79 a0bd 2d5f a03c 85a3 24bd
00000020: 3071 de3d 3bb2 ab3d 5e76 fb3d 816c 903d
00000030: a302 fe3b 28a8 febc c6e0 003d 2dcb 8e3c
00000040: 105c b1bd 5655 79bd 86c1 aa3d 2389 863b
00000050: 010d ff3c 8bb9 5c3d 9aec 75bb c84b 5b3b
00000060: e2f3 bf3d 94f6 883d 6a69 c1bc d0fc 293d
00000070: 91dc 063c 1762 d93c bcda 943d c77a 9dbd
00000080: e2fe 493d a429 6f3d 36b5 e0bb cf77 eb3c
00000090: f12a 263d 45a3 49bd 7c41 3b39 15ef 8a3a
000000a0: 6548 d53c ce8a ad3d ea18 5fbd b81e 453d
000000b0: f926 983d 3188 c73d aa56 eb3c 84c1 273d
000000c0: 4fda 043d ab34 873d 7b36 bd3d 6eea 8d3d
000000d0: 7176 af3c 44ef 36bd 5bd6 8b3d f11f ac3c
000000e0: da6e 763d f83f bb3d 4a3a 1abd 1f95 ef3d
000000f0: 5666 333d 8bf2 a6bc 1bf9 883d 449f c53a
00000100: a47d b03d 8210 63bd a8bb 73bd ba39 a53d
00000110: c9a7 95bd 887f a83c 9222 ab3d cd68 8fbd
00000120: eb16 953d eb69 a3bd 9077 d13b cc29 113c
00000130: 62bc 82bd 075d 64bc 619a 1abd bac4 87bd
00000140: 29cf a1bd 311a 9a3c 1adb 86bd c7ff 00bd
00000150: ab0e 593d da9d 213c 557b 26bd 847c a4bc
00000160: 8564 a8bc e1ff 0e3c f5ab 7e3c f8bc 69bd
00000170: 4f3e 453d 346c 523d fbd6 283d da2c 3bbd
00000180: 654d 92bd a0a1 21bd 7b16 8d3b 7aa5 8dbd
00000190: 074c b8bc 7a18 bb3d b92c 313b 0f23 8c3d
000001a0: 90a2 463c b4a5 ea3d 7fe2 09bd d784 463d
000001b0: 8a31 73bd fe13 b63d 77be 533d 4621 3abd
000001c0: 5d5c 54bd 583c 143b 1be1 e53c 7256 6a3d
000001d0: 957f 293d 631a 75bd 5d75 a8bd f666 de3c
000001e0: 6b93 46bd f730 373d 3f24 9e3d 1844 883d
000001f0: e758 9ebd 5591 ff3c 0f0c 58bd 9069 5f3d
00000200: a87f c0bb 72a9 853d 4a57 9ebc c4cd 443d
00000210: 5746 52bd 8c5a ff3c ce1d 853d ec6a 4cbc
00000220: a7ac f93c 7041 463c b480 86bc df1c 06bd
00000230: 5494 3d3d 320f f93c 90e1 843d 2f4a ae3d
00000240: 4c27 97bc 33bb 42bd 578a 98bc 1295 b9bd
00000250: 4b54 8bbd b222 7e3c b9ef 533d e561 903c
00000260: 2df3 9ebd a546 a13d 686d 83bd 8e9f 83bd
00000270: 146b 133d 4606 96bd 7dc7 a23c 7824 38bd
00000280: 5340 1cbd 5e07 6cbd dae6 6f3c b0b6 2ebd
00000290: becc d13a ad6c 43bd b638 673d 7b0a b6bd
000002a0: ddcb 9f3d 9790 86bb 9f23 433d b64e 73bc
000002b0: 6aca 92bd 96e5 87bd 46ec e1bc 9530 a2bd
000002c0: a922 103c bce0 2ebd 2fb6 983d de5a 65bd
000002d0: 1d95 213d e477 d93a 0dc2 91bd ff9d 233d
000002e0: eddc 503d 4ef7 513b 8df1 3c3d e517 663d
000002f0: d761 d43c ed1a 51bd 87fe 123d 6ff8 bfbd
00000300: 5901 c93c fa5d 3f3d b201 04bd a876 8e3c
00000310: 7d23 a63d 83b3 3c3d b3f5 42bd 213f febc
00000320: 9e8f 26bd 509d a038 435e 4dbd 7b15 b4bd
00000330: dea6 51bd 0d13 51bd 025c b0bd 7df0 c9bc
00000340: 102d 823b 5062 75bd 898a 733d 113e 583c
00000350: 6069 42bd 0cb7 8c3d 6827 a93c f37c c7bb
00000360: aa82 1cbc 7037 5bbd cbdc 033d 893f 823d
00000370: 0bc3 9c3d 474c b2bc 39d8 bb3c f68e f73c
00000380: 6a71 a5bd cee7 003d d1c2 783c 63da 733d
00000390: a40f 423d 2bac a8bd 57ac e6bc a336 67bd
000003a0: 8686 d73b 8790 97bb 97e0 84bd 1aa2 8dbd
000003b0: e96d a63d 2cf0 38bd 1a68 ccbb b883 203d
000003c0: dcab 8abc 0ad6 953d cba8 8b3d 0756 24bc
000003d0: d6cd 7bbc 812e 62bd 01ca 553d c27b a2bc
000003e0: 9a0e 46bd b2a7 a2bb acf2 47bd b5ff 9c3d
000003f0: b69b 94bd 9ebe ae3d 8d4c 593d d6ab a3bd
-0.07191671 0.054002967 -0.046285745 -0.018490346 0.062571146 -0.07835685 0.019576633 -0.040195007
0.108614326 0.08383604 0.12278436 0.070519455 0.007751779 -0.031086043 0.03146436 0.017430866
-0.08660138 -0.0608724 0.08337693 0.0041057034 0.03113413 0.053887885 -0.0037525059 0.0033461917
0.09372689 0.06687656 -0.023609836 0.041500866 0.008231298 0.02653603 0.07268283 -0.076894335
0.04931534 0.05838932 -0.0068575395 0.028743653 0.040568296 -0.04922797 0.00017858105 0.0010599816
0.026035497 0.084737405 -0.05446712 0.048125 0.074293084 0.09742773 0.028727848 0.040956035
0.032434758 0.066018425 0.09238907 0.069294795 0.021418782 -0.044661775 0.068279944 0.021011325
0.06016431 0.091430604 -0.037653245 0.116983645 0.043798767 -0.020379325 0.06688138 0.0015077372
0.08617714 -0.055435665 -0.059505135 0.08067651 -0.07307393 0.020568624 0.08356203 -0.07002411
0.07279762 -0.079791866 0.006392427 0.008860063 -0.063835874 -0.013938195 -0.037744883 -0.066293195
-0.07900841 0.018811317 -0.06584759 -0.03149393 0.052992504 0.009864295 -0.040644962 -0.020078905
-0.020555744 0.0087279985 0.015543927 -0.05706498 0.048155125 0.05137272 0.041220646 -0.04569707
-0.07143668 -0.03946078 0.0043056584 -0.06916328 -0.02249719 0.09135528 0.0027034713 0.068426244
0.012123719 0.114573866 -0.03366327 0.04846653 -0.059373416 0.08890532 0.051695313 -0.04544189
-0.051845897 0.0022618975 0.02806144 0.057211347 0.041381437 -0.059839617 -0.0822551 0.027148705
-0.048480432 0.04472443 0.07721757 0.06653613 -0.077318005 0.03119723 -0.052745875 0.05454403
-0.005874593 0.0652646 -0.019328732 0.048047796 -0.051336613 0.031171106 0.064998254 -0.012476664
0.030477835 0.012100562 -0.016418792 -0.032742377 0.046284035 0.030402754 0.06488335 0.08510243
-0.018451355 -0.04754181 -0.018620653 -0.09061636 -0.06803187 0.015511202 0.05174229 0.017624805
-0.07761226 0.078748025 -0.06417352 -0.06426917 0.03599079 -0.07325415 0.019870514 -0.044956654
-0.03814728 -0.057624213 0.014642442 -0.042654693 0.0016006452 -0.047711063 0.05645057 -0.08888718
0.07802556 -0.004106592 0.047641393 -0.014850309 -0.07167514 -0.06635587 -0.027578484 -0.079194225
0.008797326 -0.042694792 0.07456624 -0.05599486 0.039448846 0.0016591516 -0.071170904 0.0399456
0.05099194 0.0032038274 0.0461288 0.05617513 0.02592556 -0.05105107 0.035887267 -0.09373557
0.024536775 0.046720482 -0.03222818 0.017390564 0.081122376 0.046069633 -0.0475976 -0.031035962
-0.040664308 7.658696e-05 -0.050138723 -0.087931596 -0.051184528 -0.05104356 -0.08611299 -0.024650807
0.003972657 -0.05990821 0.05945829 0.013198392 -0.047463775 0.06870851 0.020648673 -0.006087893
-0.009552637 -0.053519666 0.032192986 0.063597746 0.07654389 -0.021764887 0.022930251 0.030219536
-0.08078273 0.031471066 0.015183167 0.05953444 0.047378197 -0.082359634 -0.02815835 -0.05644859
0.0065773157 -0.0046253833 -0.064881496 -0.06915684 0.081264324 -0.04515092 -0.006237996 0.039188117
-0.016927652 0.07316215 0.06819304 -0.010030276 -0.015368899 -0.05522013 0.0521946 -0.019834403
-0.04835377 -0.0049638385 -0.048815414 0.0766596 -0.07256262 0.08532451 0.05305152 -0.079917595

encoder.2.bias f4 [64]
00000000: 7141 44bc d3ab 5cbd bb55 9c3d 02e7 9c3d
00000010: ee08 7dbc 7c8d cc3c c320 eb3c 8ef4 72bd
00000020: b688 713c ff04 a43d 7656 29bd ccb7 473d
00000030: a004 9c3d a515 94bd dc89 893d a115 a93d
00000040: 307f c0bc c2fa abbd 776f 8abc e539 18bd
00000050: e13c 27bd 13bf 25bd fc15 88bc 5cc0 da3c
00000060: 9fe6 1c3d 23df 933c 610a 29bd eabd abbd
00000070: cd2b 393d 438c a33d c989 983b a4f4 1a3d
00000080: f667 a6bd 790b 73bd f782 5d3d 3087 4f3d
00000090: 790a 713d 3a44 bdbc f2a6 c4bb eb31 40bc
000000a0: 7ced 9fbb 09d9 df3d 28cd 7abb 1c55 5e3c
000000b0: 5648 19bd 6d7c ad3c a151 f2bb c433 543c
000000c0: 31f9 96bb 121e f2bc 2c9f 983b ba84 5f3c
000000d0: af6f adbd 8e75 e43c 1785 b0bd 98e3 bcbc
000000e0: 015f f13c fabb ba3d 6121 fe3c f38d 893d
000000f0: 29d7 873d 037f c33d 5c8d 6b3c 5cb6 923d
-0.011978493 -0.0538748 0.07633539 0.07661249 -0.015444024 0.024969809 0.028702145 -0.059315257
0.014742067 0.080087654 -0.04134222 0.048759267 0.0761807 -0.07230691 0.06715748 0.082560785
-0.023498148 -0.08397438 -0.016898854 -0.037164588 -0.040829543 -0.040465426 -0.016612045 0.026703052
0.038305875 0.018050736 -0.041269664 -0.083858326 0.045207787 0.07985737 0.004655097 0.037830964
-0.08125298 -0.059337113 0.054079976 0.050666034 0.058847878 -0.023103822 -0.0060013467 -0.011730651
-0.0048806053 0.10930068 -0.0038269255 0.013570096 -0.0374225 0.021177495 -0.007394985 0.012951795
-0.0046073426 -0.029555354 0.0046576466 0.013642484 -0.084685676 0.027888086 -0.08619135 -0.023057744
0.029464247 0.09117885 0.031021776 0.06716528 0.066328354 0.0954571 0.014376964 0.071636885

encoder.4.weight f4 [36, 64]
00000000: 0b50 8f3c 64ec ef3d 87a1 e4bc afed bb3d
00000010: d058 973d 2fb5 9d3d 665a a03c 0347 963d
00000020: 5ec5 7c3d 2ccd 67bd b862 c9bd 4255 f3bd
00000030: 686f 843d 008c e9bb 0c3a abbd 4040 73bd
00000040: 871d a43d 3d9e f63d 83ba b13d 956b 7abd
00000050: fc40 4fbd 32fc 1fbc 6afb b1bd 9dca d63d
00000060: 50cc 47bd 2b67 8fbd 4a06 ee3c 6fdc 7c3d
00000070: 89b3 053e dfce a53d 2758 ba3d b32a c1bb
00000080: 6da4 563d f4f1 0a3d 94bb f83a 94e3 bbbd
00000090: 7fad 153d dc48 663d 76b9 ac3d 4080 69bd
000000a0: a804 05be 7e1f 8f3d 7284 90bc 689a 83bd
000000b0: 7609 94bb e75b 853d b8d7 d9bd 4dde 9c3c
000000c0: 7145 51bd f872 95bc 9b29 b43d 7a8d 233d
000000d0: 58e8 af3d b0cd 3abc e9a5 53bd 6634 0d3e
000000e0: 5c9d 16bc 413a 9e3d 7b46 bfbc 3abd d53d
000000f0: e644 703d 1a68 f53d b4f7 063e 9099 9abd
00000100: 3531 50bd c053 f8bc e4ec 0a3d e311 19bd
00000110: 6a35 e63d 103a 4c3c fc0f e53d 29af 0fbd
00000120: a275 d2bd af22 9b3c 1e82 f93d 0858 d0bd
00000130: a472 a1bd a4f5 c2bd a06b d2bc 0602 ffbd
00000140: 8c1b d83a f068 febd cb3a aebd 32c4 b93d
00000150: 6871 c1bd a5e1 c3bd 9f94 dcbd 5990 ae3d
00000160: 92db 86bd 3ec8 f83d 6895 733d 3a8d e23d
00000170: c453 40bb 063c d03d 968a f53d 229a f43d
00000180: 7ca3 2abd 20bf e6bd e74e 953d c199 b6bd
00000190: f833 afbd c63e 9d3d a06c 6e3c 7e3b 893d
000001a0: 140e bdbd 0f4b cdbc 9628 50bd 6fc4 96bb
000001b0: c0c0 8ebd 5dfb aa3d a271 c3bd 4ea3 b13d
000001c0: e880 823b 873a dcbd 9c51 7bbd 6486 363d
000001d0: 9095 e73c beca db3d 8600 f03d c06c 63bd
000001e0: 1ca6 f3bd 05e4 1f3d 0821 7b3d 04ad 20bc
000001f0: 2c9f 20bd d2ad f3bc bc39 2fbd 28dc dabc
00000200: 6ca0 45be f70b 6fbd 8142 be3d 5b69 263d
00000210: bf15 a6bd 98b1 b63d 9fad b43d 8aeb da3d
00000220: 0920 76bc 3334 b2bd 0b44 1d3d 2fb2 dd3d
00000230: e278 d8bd a092 9e3b 4f8e 763d 3895 e5bd
00000240: 2e83 6f3d 448c 72bd 5f25 0b3e 9fbe bcbc
00000250: b4fb 193e 51d4 883d 4e68 833b e1f6 f83c
00000260: 9deb 843d 5cf1 aa3d 8fad 9a3d e079 b03d
00000270: 2956 a7bd 22e2 f33d ea2d a03d 7227 c13d
00000280: 5067 4abd 7353 813d 7f6e 3bbd 121f 433d
00000290: 6d6e 03be 997c d83c 046b 703d 3088 e3bc
000002a0: ee0d f43d 164d 0f3c 01bd d1bd 4d97 86bd
000002b0: 7a9a f13d ebc7 a83d 1e31 9c3b 20bf c7bb
000002c0: 4ad7 dabc 9394 303e 1f45 83bd a0f5 99bb
000002d0: c0dc c6bc e4d3 d23d 98c3 333d cbc6 2f3d
000002e0: 0546 d4bd 8aa7 0bbe eb26 0f3d 4ab3 0e3d
000002f0: 756b 1abe 8fbd b0bd 1823 a73d d4d7 fc3d
00000300: 0137 cc3d 46c7 803d 0d8c 00be 6fb5 c93d
00000310: 9c25 6c3d bc7f aa3d 5aa4 12bc 6065 08be
00000320: ce4c 043d 2f6f 033e da5d 6dbc 8bf1 6dbb
00000330: 64f9 db3d e85e c8bd faf6 633d a573 133e
00000340: 930d a7bd 04ba a83d 39e6 bd3d e68f efbd
00000350: cf2d e13d 84ba 473d 3f30 0ebe 5549 16bc
00000360: 1ed1 50bd 497e 133e e38f c03d 0685 2ebd
00000370: 48c5 aebd 485c a13d c401 2dbc f24a 1a3d
00000380: d03f 16bd 731b 183b 0100 783d 20be 033e
00000390: b60b 0d3e f41a 123e 8db9 8c3d 79bd e53c
000003a0: b938 60bd 1aee d6bc 4b41 d6bc 5462 5e3d
000003b0: b0f0 00be 9aa7 003e 3db3 d5b9 8299 12bd
000003c0: 2330 58bd 37e3 ba3c 46d1 943d 0b07 88bd
000003d0: e960 2cba caf3 a43d 2d53 cdbd 4685 653d
000003e0: 3720 b33d 91b0 aa3d 825f a4bd 9b9f f9bc
000003f0: f387 653d 9263 be3d c6f0 9abd bb1e ae3d
0.017494222 0.1171501 -0.027909053 0.09176194 0.073899865 0.07700574 0.019574355 0.07337763
0.06171166 -0.05659215 -0.09833282 -0.11881496 0.064665616 -0.007127285 -0.08360681 -0.059387445
0.080134444 0.120419 0.086781524 -0.061137754 -0.050599083 -0.009764718 -0.086905316 0.10487864
-0.048778832 -0.070020996 0.029055733 0.06173366 0.13056768 0.08096098 0.09098845 -0.0058949827
0.052402902 0.03392215 0.0018976801 -0.091742665 0.036542412 0.056221828 0.08433811 -0.057007074
-0.12990057 0.069884285 -0.01764128 -0.06425935 -0.0045177294 0.065116696 -0.10636848 0.01914897
-0.051091615 -0.018243298 0.08796998 0.039929844 0.08589238 -0.011401579 -0.051671896 0.1378952
-0.009192791 0.07725955 -0.023349037 0.10436483 0.058659457 0.119827464 0.13180429 -0.07548821
-0.050828177 -0.030313373 0.033917323 -0.037370574 0.11240657 0.012465015 0.111846894 -0.035079155
-0.10276343 0.018937437 0.12183021 -0.10173041 -0.07883194 -0.095195085 -0.025686085 -0.12451558
0.0016487702 -0.12422359 -0.085073076 0.090706244 -0.09445459 -0.09564523 -0.10770535 0.08523626
-0.065848485 0.12147568 0.059468657 0.11062093 -0.0029346803 0.101676986 0.11989324 0.11943461
-0.041659817 -0.11266923 0.0729044 -0.08916045 -0.08554834 0.07677989 0.014552265 0.067008
-0.09231201 -0.025060205 -0.050819956 -0.0046010534 -0.06970358 0.08348725 -0.09543158 0.08673726
0.003982652 -0.10753351 -0.061357126 0.04456176 0.02826956 0.107320294 0.1171885 -0.055523634
-0.11896917 0.039035816 0.061310798 -0.009806875 -0.039214298 -0.02974597 -0.04277967 -0.026716307
-0.19299477 -0.05836102 0.09290028 0.04062782 -0.081096165 0.08920592 0.08822178 0.10689457
-0.015022286 -0.087013625 0.03839497 0.108250014 -0.105699316 0.0048392564 0.06019431 -0.11210102
0.058474712 -0.0592158 0.13588475 -0.023040114 0.15037423 0.06681121 0.004010237 0.030391159
0.06490252 0.08346817 0.07552635 0.08616996 -0.081707306 0.11908366 0.078212574 0.09431352
-0.049414933 0.06314745 -0.045759674 0.047637053 -0.12835093 0.0264266 0.058695808 -0.0277749
0.119167194 0.008746406 -0.10241128 -0.06571827 0.11797042 0.08241256 0.0047665974 -0.006095782
-0.026713986 0.17244177 -0.06409668 -0.0046984702 -0.024275184 0.10294321 0.043887705 0.042914193
-0.10364918 -0.1363813 0.034949224 0.034838952 -0.15080054 -0.086299054 0.081609905 0.123458534
0.09971429 0.062880084 -0.12553425 0.09849059 0.057653055 0.08325145 -0.008950317 -0.13319921
0.03229981 0.12835382 -0.014487708 -0.00363073 0.10740927 -0.09783727 0.055655457 0.14399584
-0.08156886 0.08238605 0.09272427 -0.11697368 0.109950654 0.04876186 -0.13885592 -0.009172757
-0.05098068 0.14403643 0.09402444 -0.04260733 -0.08533722 0.078789294 -0.010559503 0.03766913
-0.03668195 0.002320972 0.06054688 0.12865496 0.13773999 0.14268094 0.068713285 0.02804445
-0.054741595 -0.026236583 -0.026154181 0.05429299 -0.12591815 0.12563935 -0.0004076007 -0.035790928
-0.05278028 0.022813423 0.07266478 -0.06641968 -0.000657572 0.080543116 -0.1002563 0.056035303
0.08746379 0.083344586 -0.08026029 -0.030471614 0.056037854 0.09296335 -0.07565455 0.08501955

encoder.4.bias f4 [36]
00000000: 1981 ccbd b23c 6ebd a6fd a9bd 7144 463d
00000010: 0a74 93bd e9b6 1c3d 8b30 923d 33ca efbd
00000020: bf4d 903d 50e5 e9bc 0ec9 69ba b7bc 98bd
00000030: 69ef c43d b378 963d c41c dd3d 63ae 2abd
00000040: 2ab1 293e 5f52 163e 7f50 bdbd e12e ab3c
00000050: 0c5e 80bd dfaf bf3d 2424 ce3c c327 9f3d
00000060: d1e2 b33c 8b38 ae3d 2414 5cbd 70a3 923d
00000070: fa77 363d 9665 5dbd ea79 aa3d ad64 88bd
00000080: f01e b33d 1632 ad3d bbb4 543d 492b 94bd
-0.09985561 -0.058163352 -0.08300333 0.048405115 -0.07199867 0.038260374 0.07138165 -0.11708488
0.07046079 -0.028551728 -0.0008918204 -0.074578695 0.09615976 0.0734724 0.10796502 -0.041670214
0.16571489 0.1467986 -0.09243869 0.020896377 -0.06267938 0.093597166 0.025163718 0.07771256
0.02195874 0.085068785 -0.053730145 0.071600795 0.044548012 -0.054051958 0.083240345 -0.066598274
0.08746135 0.08456819 0.05193017 -0.072348185

encoder.6.weight f4 [18, 36]
00000000: ef0f 033e 336c 1fbe e27d 863b c152 0cbe
00000010: 7736 1cbc 8fb0 0f3e b7dd ac3b 6eb6 f13c
00000020: cbb6 cf3d 5a14 a53d ffa3 663d b823 51bc
00000030: e4bc e2bc 8198 70bd c9f2 9bbd fd2d dcbd
00000040: b530 3fbd 6d0f 943d 031b 6d3d 3a98 5fbd
00000050: 8b1f 0d3e f2e0 96bc eb21 f53d 497c 903d
00000060: c606 c63d 9f75 0d3d 8330 a43d e90f 913c
00000070: 0e45 fbbd 0e46 10bd 1ef9 8a3d 2e57 1b3e
00000080: 4231 81bd 7f3b 993c a4bd b2bd d381 d9bb
00000090: e8c3 f3bd ca18 cc3d f7bd 59bd 6e00 1cbe
000000a0: f347 083d d1cd 073e d13a bdbd 7835 a0bd
000000b0: 39b0 1b3e 89fc 113e a52f e93d 7764 253d
000000c0: 131e bdbd a3d2 043e f053 5bbc 9c33 2d3d
000000d0: ab77 0d3d d738 16be 9860 9f3c c4fc f4bc
000000e0: ae3d 3d3d b455 e7bd bbda f63d 6b8c 183e
000000f0: 5837 813b 0e9e b9bd ff92 cabd 33e7 1f3e
00000100: c96b 31be 6ba5 003e 8cd9 2ebd 3810 d7bd
00000110: e9da 99bd 746f 283d d962 ddbd 3ca8 2fbd
00000120: c842 b83d bbff 153d bd69 023e d768 e33c
00000130: 8fb9 9e3c e079 243d 95a9 0c3e af1b 56bd
00000140: a4b2 6a3d ea43 1dbe 5db5 283e 6d37 e83d
00000150: a54e 3abd 1447 053e 6be9 4cbc 993b 52bd
00000160: 6907 b63d 8470 3ebd 455d 0d3e 49a2 e13d
00000170: d4d6 bbbc 4608 d1bd 1e30 12bd 2cc2 e7bd
00000180: 1ad7 e0bc 7e27 85bd 9fa5 25bd 5018 2b3e
00000190: 4fb9 06be 9306 10be ae46 e7bd cbf8 233e
000001a0: 0233 723c bf87 dfbd cef2 193e 03eb 80bd
000001b0: 0f2f e13d 1e0f 21be fb81 c4bd 2d5e 8e3d
000001c0: 91eb d13d 48ba 113d 55e1 bb3d 311c 80bd
000001d0: 84ed 103e e2b7 db3d a879 c23d b4cb 973d
000001e0: bfde 15be 01a0 d73d e7d5 1a3e b054 06be
000001f0: 7ffc 643d af87 d03c 5af3 b5bd b3d0 df3c
00000200: 5832 cbbd 6544 dfbd ce51 353e 24b8 ec3c
00000210: 0ec8 ecbd 273f 203d 4a41 203e e098 01be
00000220: 05c6 a53d 84e6 3e3e 6867 113d 98c9 db3d
00000230: 6a8e 6d3d 4cd7 90bd 2907 b23c 91ba f43d
00000240: 5ea6 053e 0e9b b6bb 2f9a 2dbe 2922 0d3d
00000250: 0d23 bb3d 2882 123e 68f9 c13d 0080 10bc
00000260: fe4f b3bd 7a2e e63d 6912 08bd 0ce9 d23c
00000270: aebc 48bc 304b 5d3d cfe4 d1bd 44ee 793d
00000280: 8b83 babd c210 d33d 7aac 383c 6f28 f83d
00000290: 26e6 db3d 5f14 973d 7945 18bd 64dd e83d
000002a0: d178 fb3d cb2e 0c3e 7905 8f3c 12f7 87bc
000002b0: 6924 77bd 6117 ddbd 77d9 a13d 9891 223e
000002c0: 825f 43bd 6880 05be 0285 2ebd 8124 0bbe
000002d0: e1b6 dfbd 4f26 1cbe 3241 063e fd7c 0abe
000002e0: 8421 403e f423 0ebe edda 923b c33a 91bd
000002f0: d36e 093d 9826 c13c 9799 78bd 5d04 c2bd
00000300: 6c43 2bbd 24e9 b93d 9b49 a1bc a05c 453d
00000310: 416d 153d d21b 84bd 3710 06be 82c7 e23d
00000320: d709 c23d d1f8 353d 9676 9c3d 329f 433d
00000330: 58cc cf3d 1085 4e3d 7205 4d3e e9f9 03be
00000340: d78b e93d 345f 673e a36c 41bd 957a 0b3e
00000350: 93a0 ea3d c181 dabd 5e65 0ebe d3f2 0e3d
00000360: 5054 c23d aacd fc3d d33b 243e f445 41bd
00000370: 5510 333d 4926 4a3d 710f 163e 3438 1b3d
00000380: f86f 0f3d 4e3e 9dbd f2a8 df3c 5d67 acbd
00000390: 5844 183d 1d8f b13d 473d 0c3e 174c 1e3e
000003a0: 72af 05bd cb30 9dbd 2653 d13d 502a 00bd
000003b0: 0d9f c8bd d9c1 08be d389 18be fd17 5e3c
000003c0: 7878 c53d b5af cd3d c666 573d 20bf 913d
000003d0: 26d1 8d3c 448e debd db11 293e 20fd 24be
000003e0: 98e0 e5bc 4251 0a3e 8f9a 18bd b3ad 073e
000003f0: d4f8 dbbd c83e bf3c 76f5 f03d c9ed 5ebd
0.12799047 -0.15568618 0.004104362 -0.13703443 -0.00953447 0.14032196 0.005275454 0.029505935
0.10142287 0.080605224 0.056308743 -0.012764864 -0.02767796 -0.05873919 -0.07614667 -0.10750959
-0.04667731 0.07229505 0.05788709 -0.054588534 0.13781564 -0.01841781 0.1196936 0.070549555
0.09669261 0.034536 0.080170654 0.017707782 -0.122690305 -0.03522306 0.067857966 0.15169975
-0.06308223 0.018705128 -0.08727577 -0.0066377907 -0.119026005 0.09965666 -0.05315968 -0.15234539
0.03327174 0.13262106 -0.09239734 -0.07822698 0.15203942 0.14256491 0.113860406 0.040379014
-0.09234252 0.12970977 -0.0133867115 0.042285547 0.034537952 -0.1467012 0.01945524 -0.029905684
0.0462014 -0.112956434 0.12053438 0.14897315 0.003943365 -0.0906335 -0.098913185 0.15615539
-0.17326273 0.12563102 -0.042687938 -0.1050114 -0.07512457 0.041121915 -0.10809869 -0.04288505
0.089971125 0.036620837 0.12735648 0.027759952 0.01937559 0.04015529 0.13736565 -0.052272495
0.05729927 -0.15357938 0.16475435 0.11338697 -0.045485158 0.13015395 -0.012506823 -0.051326368
0.08888132 -0.046494022 0.13805111 0.110172816 -0.022929586 -0.10206656 -0.03569042 -0.11316332
-0.027446318 -0.06501673 -0.04044115 0.16708493 -0.13156627 -0.14065008 -0.11292778 0.16012876
0.014782669 -0.109145634 0.15034029 -0.06294825 0.10995304 -0.15728423 -0.09595104 0.06951556
0.10250009 0.035578042 0.09173838 -0.06255377 0.14153105 0.10728432 0.0949586 0.074119
-0.14635752 0.10528565 0.1512066 -0.13118243 0.05590486 0.025455324 -0.08884306 0.027321195
-0.09921712 -0.10901717 0.17706987 0.028896399 -0.11561595 0.039122727 0.15649906 -0.12655973
0.0809441 0.18642622 0.035499007 0.1073181 0.057997145 -0.070723146 0.02173193 0.11949647
0.13051745 -0.005572683 -0.16953348 0.034456406 0.09137545 0.14307463 0.094713986 -0.00881958
-0.08755492 0.112393335 -0.033220682 0.025745891 -0.012252016 0.054026783 -0.1024872 0.061018243
-0.09107121 0.10305931 0.01127159 0.12117087 0.10737257 0.07376932 -0.03717563 0.11370352
0.12278903 0.13689725 0.017458664 -0.016597304 -0.060337458 -0.10795475 0.07902806 0.15875852
-0.047698505 -0.13037264 -0.042607315 -0.13588144 -0.10923553 -0.15248989 0.13110808 -0.13524242
0.18762785 -0.13880903 0.0044816644 -0.07091286 0.033552956 0.023577973 -0.06069335 -0.094734885
-0.041812345 0.09077671 -0.019688418 0.048184037 0.036481146 -0.06450619 -0.13092123 0.11073209
0.09474533 0.044426743 0.07639806 0.047759242 0.10146397 0.050419867 0.20021608 -0.12888302
0.114036255 0.22594911 -0.047222745 0.1362098 0.11456408 -0.1066928 -0.13905856 0.034899544
0.094887376 0.12343915 0.16038446 -0.047185853 0.043716747 0.049352918 0.14654328 0.037895396
0.03501889 -0.07677899 0.02730224 -0.084181525 0.037174553 0.08669875 0.1369525 0.15458713
-0.03263802 -0.07675322 0.102209374 -0.031290352 -0.097959615 -0.13355197 -0.14896326 0.013555524
0.09642118 0.10043279 0.052588247 0.07116532 0.017311644 -0.10866979 0.16510718 -0.16112185
-0.028061196 0.1350756 -0.037256774 0.13249855 -0.107408196 0.023345366 0.11765568 -0.05442599

encoder.6.bias f4 [18]
00000000: 8c0a fe3d 5635 91bd 872e e5bd a69f 863d
00000010: 11b9 843d caab 31bd debd abbc 06fa 03bd
00000020: 699a 02be b06a 3dbd 1eea 98bd 92d1 20be
00000030: dbf5 133e 9b49 77bd 2213 913c ebb4 693b
00000040: 9e14 de3d 0309 02be
0.124043554 -0.07090251 -0.11190515 0.06573419 0.06480611 -0.04337672 -0.02096456 -0.032220863
-0.12754215 -0.046244323 -0.07466529 -0.15704945 0.14449255 -0.06037293 0.017709319 0.0035660814
0.10843776 -0.1269875

mean_embedding.weight f4 [5, 18]
00000000: e9d0 00be a904 173e 1c8f 423e 1013 393e
00000010: e697 083e 052c 92bd 38cc 24be 8c5b 3dbe
00000020: 64c1 49be 20d0 8cbd c709 6bbe b2d4 6b3d
00000030: bcb5 033d d73e adbd 5270 31be 5d7b 0c3e
00000040: 66b4 07bd 1fe4 e7bd ce2c 503e 5df5 483e
00000050: ead2 4abe dacf e5bd cdb1 e23b 4784 693d
00000060: 1a1d 91bc 939d 353e e082 a43b aa63 1fbe
00000070: 0072 af3b be0d 583e 25cd 103e 7d2c 2d3e
00000080: 03b7 74be db11 30be e9f4 333e 8219 953b
00000090: 80f3 38be 03fa b83c 3b8d 4a3e 6856 be3d
000000a0: c075 5c3e bd83 08be 3dee 22be 2102 0abe
000000b0: f2ed 2dbe 92fa 70bd bdbf 6d3e cf6a 85bd
000000c0: a6b5 3e3e 4c1d 60bd 041a 45be 9acf c93d
000000d0: d949 023e 89c1 2f3d 44a9 633d 4574 18be
000000e0: f6a8 9dbd cb36 543e 7669 f43c 76a1 4dbe
000000f0: 449c 5e3e cf00 5b3d 9c9e babd f090 3d3e
00000100: 05c6 70be 9a29 8b3c e503 1bbe aec9 0ebe
00000110: 0053 0ebe b553 1ebe d075 5cbe c237 573e
00000120: 4630 2fbe eb66 c9bb 0b3d 213e 5c9c 76bc
00000130: 5817 543d 1a95 393e a05c 3f3e 944c e63d
00000140: cbde 483e 7287 0bbe 05ff 533e 9c8d 26bd
00000150: 5756 a7bd 316c 023e 0064 eebd 695b 62be
00000160: 613e f63c b860 9abd
-0.12579693 0.14747871 0.18999904 0.18073678 0.13339195 -0.07137302 -0.16093528 -0.18491954
-0.19702679 -0.06875634 -0.22952949 0.05757589 0.032155737 -0.084592514 -0.17328003 0.13718934
-0.033131026 -0.113228075 0.20329592 0.19624849 -0.1980702 -0.11221285 0.006918168 0.057010915
-0.017714072 0.17735891 0.0050204843 -0.15565363 0.005354166 0.21098992 0.14140756 0.16911502
-0.23897938 -0.17194311 0.17573895 0.00455016 -0.18061638 0.022580152 0.19780438 0.092938244
0.21529293 -0.13331504 -0.15911193 -0.13477375 -0.169853 -0.058832712 0.23217674 -0.06514513
0.18623981 -0.05471544 -0.19248205 0.0985405 0.12723483 0.04290918 0.055581346 -0.14888103
-0.07698242 0.20724027 0.029835444 -0.20081124 0.21739298 0.053467568 -0.091122836 0.1851232
-0.23513038 0.01698761 -0.15138204 -0.13944122 -0.1389885 -0.15461619 -0.21529317 0.21017364
-0.17108259 -0.006146302 0.15745942 -0.015051927 0.051780075 0.18123284 0.18687677 0.11245075
0.19616239 -0.13625887 0.20702751 -0.040662393 -0.08170765 0.12736584 -0.11640167 -0.22105183
0.030059041 -0.07537979

mean_embedding.bias f4 [5]
00000000: aec0 b1bc 8d07 c23d c9ac c53d d004 e63d
00000010: 1ad2 8f3d
-0.021698322 0.094740964 0.09652097 0.11231387 0.070224956

logvar_embedding.weight f4 [5, 18]
00000000: 8a0c 193e 6dc0 ecbd 9b6b 063e adc7 5abe
00000010: a330 c4bc 0750 90be 99bb 66be b181 2ebe
00000020: 9d19 33be ae2d 433d c19c 303e 90c3 093e
00000030: 41fe 5b3e c359 8ebd 623f 013e a2b8 073e
00000040: 6b6f 003e e9f1 94bd 2a87 093e 82b1 f4bd
00000050: 5ed3 023d 36c5 22be 6728 693d 9406 f0ba
00000060: f172 02bc 9453 903d 041d 433d 0830 c33d
00000070: cca3 04bd 0d19 81be c342 18be 7ee9 05be
00000080: 980d 0f3e a173 fcbd befb 593c 8179 fa3d
00000090: 4c04 4ebe 609a 273e c404 953d 4a94 023e
000000a0: a8d1 063e 8966 c6bc e472 8cbc 92bd 0f3e
000000b0: c765 4bbd fd1d 9bbd 9e75 b13d 986d 31be
000000c0: 8f27 22be ee52 67be 270f 2a3e c1f9 183e
000000d0: deb8 4a3e 72cc 6ebe d41e b43c fbdc 66be
000000e0: d36e 603e aed4 33bd 459e 3b3e 3d94 87be
000000f0: 42c2 01be 00c5 b33c 80dd 4abe cc17 093e
00000100: be83 c23d de2d 013e eb6b c1bd eb0a 4cbe
00000110: e5fd 133e 85f4 4b3d 4f0b 74bc cf29 4bbe
00000120: 03ff a43d 58c3 f73d 8492 fbbd 8441 6cbe
00000130: d4a9 ce3c 0bce ddbd 7133 193e 9d12 0e3e
00000140: 5e33 533e b21f 69be 1e7e b13d afb4 a3bc
00000150: 2866 253c ded7 643d 018f 583e acd4 653e
00000160: 0b40 f53d de90 94bc
0.1494619 -0.1156014 0.13126986 -0.21365233 -0.023948973 -0.28186056 -0.225325 -0.17041661
-0.1749024 0.047650985 0.17247297 0.13453507 0.21483709 -0.069507144 0.12621835 0.13254026
0.12542503 -0.07272703 0.13430467 -0.119479194 0.031939857 -0.15895543 0.056923296 -0.0018312507
-0.0079619745 0.07047191 0.047635093 0.095306456 -0.03238277 -0.25214425 -0.14869218 -0.13077351
0.1397003 -0.12326742 0.013304649 0.12230206 -0.20118827 0.16367483 0.072762996 0.1275188
0.13165915 -0.024218814 -0.017144628 0.14037159 -0.04965761 -0.07574079 0.08665012 -0.17326963
-0.15835403 -0.22590229 0.16607343 0.14939024 0.19797084 -0.23320177 0.021987356 -0.22545235
0.21917276 -0.043904 0.18322094 -0.26480284 -0.1267176 0.021944523 -0.19811058 0.13387984
0.09497784 0.12615153 -0.09444412 -0.1992604 0.14452322 0.04979374 -0.014895274 -0.19840167
0.08056452 0.12097806 -0.12283805 -0.23071867 0.025227465 -0.10830315 0.1496103 0.13874288
0.20625064 -0.22765997 0.08666633 -0.019983618 0.010095157 0.05586993 0.21148302 0.22444409
0.11975106 -0.018135484

logvar_embedding.bias f4 [5]
00000000: 6250 423e 9d8d d4bd 8518 5c3e ca0a 4b3e
00000010: 774f acbd
0.18975976 -0.10378573 0.21493728 0.19828334 -0.08413594

decoder.0.weight f4 [18, 5]
00000000: 7a88 fabd cbe8 40bd 8b60 db3e 082f e23e
00000010: fe40 a5bd d9b9 35be 19ea 903e a65b 97be
00000020: f44b c33e 2b41 853e bc55 a83e 8797 473e
00000030: af70 d2be aed5 9dbd e4e2 243d a994 eb3e
00000040: b621 563d c06e a53e 6e94 eebe 47cd b73e
00000050: 3d95 c83e 5cc3 b5be bbf6 babe 028e 2fbe
00000060: 501a bebd c43c 60be 3113 c2be 1508 2c3c
00000070: 877f 05bd 4f50 3abe ca67 1bbe ed80 d4be
00000080: 17b3 043d 357e b6be 7c60 96bd 321c c8be
00000090: 8914 f6bd 1b1a 82be c5b2 e6bd b6f7 2dbe
000000a0: 2060 b2be ffe0 b7bd 4b75 91be 320d 8b3d
000000b0: 2749 ce3e 2b8d 9e3e 4d18 72bc 1d51 e73e
000000c0: 1a8f 8dbe b73c 9cbe e9dc 223e dd6a 42bd
000000d0: dd92 39be 217f a03e 99e8 a0be 9237 91bd
000000e0: 82f0 a83e 05ab da3e 08b2 f83d a959 eabe
000000f0: 5ba5 e8be 5f83 953e 1b4b 6cbd 8882 82be
00000100: a8b5 98bd 6426 0d3e eb9a b43d 10c4 4c3e
00000110: 9d6c f03e fedc 9bbe 130b 9d3e b216 9f3a
00000120: ae72 f1bc ad74 c83e b384 1ebe 0dc4 48be
00000130: d0fd 7cbe 381c debd 66ac 923e 679d cb3e
00000140: e6e0 b7be 55f3 82be b13a 223e d7e4 5fbd
00000150: 2e52 27be c014 d7bd 65fe eabd 5e26 c03c
00000160: 34e7 b1be ffeb b4bd
-0.12233062 -0.04709701 0.42847094 0.44176507 -0.08069037 -0.17746677 0.28303602 -0.2956211
0.38143885 0.26026282 0.3287791 0.19491397 -0.41101596 -0.07706772 0.040255442 0.46011856
0.052278243 0.32311058 -0.46597618 0.35898802 0.3917636 -0.3550061 -0.36516365 -0.17144015
-0.092823625 -0.2189818 -0.37905267 0.010499974 -0.032592323 -0.18194698 -0.15176311 -0.41504613
0.032397356 -0.35643163 -0.07342622 -0.3908401 -0.120156355 -0.25410542 -0.11264566 -0.16989025
-0.34838963 -0.089784615 -0.284098 0.06789626 0.40290186 0.30967078 -0.014776302 0.45179072
-0.2764824 -0.30515072 0.15904583 -0.047465194 -0.1812243 0.31346992 -0.31427458 -0.07090677
0.32995993 0.42708603 0.12143332 -0.4577153 -0.45438656 0.2920179 -0.057688814 -0.25490212
-0.07456523 0.13784176 0.08818611 0.19996667 0.46957865 -0.3044204 0.3067251 0.0012137501
-0.029473629 0.39151517 -0.15480308 -0.19606037 -0.24706197 -0.10845226 0.28647155 0.39768526
-0.3591377 -0.25576273 0.15842701 -0.054661598 -0.16339943 -0.105020046 -0.11474303 0.023455795
-0.34746706 -0.08834075

decoder.0.bias f4 [18]
00000000: ac57 253e 1902 5dbd ba39 e93d 7e09 f83d
00000010: 2ea5 043e 988e 56be bad0 21be d744 013e
00000020: bcd4 563e d43c 4ebe cbb9 9bbe 5aab 0abe
00000030: ffc4 bc3c 10c1 633e a059 023f 5be8 0a3e
00000040: fef9 013f df27 423e
0.16146725 -0.05395708 0.113879636 0.121111855 0.12953636 -0.20952833 -0.15802279 0.12623917
0.20979589 -0.20140392 -0.30415186 -0.13541928 0.023043154 0.22241616 0.50918007 0.13565199
0.5077208 0.18960522

decoder.2.weight f4 [36, 18]
00000000: 80a9 803e 7c77 e4bd 1aaf 3dbe 9f8f f83d
00000010: 3e3e 9d3d 5dbc 35be 21ab 80bd 0be4 3ebe
00000020: 21f7 773e 43af 8bbc 95b9 9dbb a9e5 edbd
00000030: 75cb 9abd 21a2 e3bb 87fa 8d3e e149 283e
00000040: 9a18 003e d837 03be 3e7e 883d f1d2 4bbd
00000050: 6819 42be 7a46 963d 7f2f 1a3e 1583 353e
00000060: fe32 bfbc 88b1 2d3b 0cb2 843e 92c1 743e
00000070: 5124 033e b56a d43d ac02 a6bc 5e3a 483e
00000080: a9b8 da3d 0934 8a3e 383e 9e3b e924 313e
00000090: 15f3 d1bd e24f 2e3e f3ae 5d3d 70a1 323d
000000a0: 0ddb 07be c1ca e53d bfb0 9dbd 3a34 81bd
000000b0: ee8c 34bd c4b8 6fbe e2b6 04bc 861e 043e
000000c0: 3741 73bc 4bb5 aebd 2ff3 833c 2cf7 773e
000000d0: 95c0 553e 4966 4a3e 69b8 8ebd b741 dc3b
000000e0: 47b9 eebd 4e82 88bc c6a5 333e abad 653e
000000f0: 2b27 3cbe 9032 183e 3dcc 06be fbdd 8b3d
00000100: 2b5c 71bd 03f1 333d d3f6 093e 3773 07bd
00000110: 701f 0dbe 2e3b febd d457 0cbe 535c f3bd
00000120: f7d4 2a3d fec9 553e 94fe 863d e556 db3d
00000130: 55da 1fbd 709b 23be 9a40 3cbe 4ad5 28be
00000140: 75cb 39bd c09f 753e 2ecc 91bd 210f 333e
00000150: f72a 733d 8115 583e 9804 cebd 713c fa3c
00000160: 6c62 023d 86cc 083e 51fb 4b3e b146 11be
00000170: 334b 3abe ab04 1b3e b737 173e fe8a 343e
00000180: 116a d83d 35fd 233e 13b4 6b3e b9ba 6f3c
00000190: 01a9 2abd 7f65 d43b 9916 0e3e 9fe9 113e
000001a0: e4e1 473e c083 803d 34ec 473e b040 333e
000001b0: 5b06 45bd 634c 45be 5819 80bd 398d c8bd
000001c0: 4912 49bd 6f10 763e 4620 0a3e edc0 97bc
000001d0: c921 1fbe 5d1e 643e c398 483d 27b9 d33c
000001e0: dfb3 373e 9e11 34be fb86 243d e287 543e
000001f0: d1c5 4c3d 9723 9ebd bd38 903c 977b cbbc
00000200: 3fe6 8a3e 189c ccbd f8c4 0dbe 17c0 3f3b
00000210: 9345 493e 172b 6e3e 8682 853e 5f92 2b3e
00000220: 0ccc 133a dc8b f3bd a79e 95bd 7121 9abd
00000230: 4922 903e 3075 f63d 1829 d9bd f126 133e
00000240: 3f1d 9cbd 0299 1ebe 1382 d43d 9161 95bd
00000250: 32df e03d 4ec5 66bd 8669 1fbe 2e54 023e
00000260: e27c 223e 9f9f 0dbe db8d 833e a3f3 773e
00000270: 7d58 d83d cb0c 4abd 52a1 f1bd 4716 27be
00000280: b74f 97bd fcff 973d 4f4b cfbc f70b 3a3e
00000290: e5e1 603b ca00 8d3d cf2c e43d 0916 8e3d
000002a0: bdde 3b3e 6950 20be e2d1 6abb f943 843d
000002b0: 13f0 7f3e 1fd5 7a3e 2df1 343d 9d78 8cbd
000002c0: a40f 9a3c c155 06bd c79c ea3c 5154 8dbc
000002d0: 56ee 09bd 1443 eebd 7573 82bd a253 27bb
000002e0: d608 1b3c a19f b7bd 1fd6 573e 1fc3 0a3e
000002f0: 531a b13d bfff d83d c6a8 b93d 80cc bcbd
00000300: a994 1a3e d8f3 993d 60f9 833e c6d0 6a3e
00000310: f4ae c7bd 1469 b43d ab14 a53c 7d30 473d
00000320: 0e4f 593e 89ec 8f3d 3ebe 573e ecf3 923e
00000330: 54b4 ca3d e537 8abd 13be 06be 3e2d 1abe
00000340: 5e16 7b3e 530d d33d 5df4 c83d c81d 873e
00000350: 8ea3 963b 7e8e cdbd 70ac 1d3e 0df5 183e
00000360: 890f 2d3e 8c4f 20be e77b 623c ab1d 2a3d
00000370: ad8e bc3d 8288 7a3e d86f 823e 3db7 f63d
00000380: ab59 12be a477 b73c 9bd4 24be a11a 23be
00000390: 54fe 8abd a69c a8bd a479 e6bd 039d 2cbe
000003a0: bbe7 4d3e 8d88 1dbe cca4 cebd f897 28be
000003b0: c960 cb3d 20cd 863e 07df 5f3e 0ce0 613c
000003c0: d335 d9bd 0332 cdbd 1990 c3bb d4b3 433e
000003d0: d671 35be 1d15 3cbe dc6b 113e 30b0 8a3e
000003e0: 61ce 513e 5fd6 87bc 042d b33d 5411 273c
000003f0: 46d9 34be 232b 183e 922c 37bc 51bb 2c3e
0.25129318 -0.11155602 -0.18523827 0.121367685 0.076778874 -0.17747636 -0.0628264 -0.18641679
0.24215366 -0.017051345 -0.004813383 -0.1161607 -0.075583376 -0.0069468175 0.277302 0.16434433
0.12509385 -0.12814271 0.06664704 -0.049761716 -0.18955004 0.07337661 0.15057181 0.17725785
-0.023339745 0.0026503522 0.2591709 0.23901966 0.12806822 0.10371915 -0.020264946 0.19553515
0.106797524 0.26992825 0.0048291944 0.17299236 -0.10251442 0.1702266 0.054121923 0.04361099
-0.13267155 0.11220313 -0.07699727 -0.063087896 -0.044079714 -0.23410326 -0.008100243 0.12902269
-0.014847091 -0.08530673 0.01610717 0.24215382 0.20874245 0.19765581 -0.06968767 0.006721701
-0.116564326 -0.016663697 0.17543706 0.2242953 -0.18374316 0.14863038 -0.13163848 0.06829449
-0.05892579 0.04393102 0.13473062 -0.03306886 -0.13781524 -0.124136314 -0.13705379 -0.11882844
0.041707005 0.20877835 0.06591526 0.10709933 -0.039026577 -0.15977263 -0.18384019 -0.16487613
-0.045360047 0.23986721 -0.07119022 0.1748624 0.059367146 0.21101953 -0.1005947 0.030546399
0.031832144 0.1335927 0.19920088 -0.14187123 -0.18192749 0.151385 0.14767347 0.17631146
0.105671056 0.1601456 0.23017912 0.0146319205 -0.04166508 0.006481826 0.13875808 0.14249276
0.19519764 0.06275129 0.19523698 0.17505145 -0.048101764 -0.1926742 -0.06254834 -0.09792561
-0.049089704 0.24029706 0.13488874 -0.018524611 -0.15540232 0.22277208 0.04897381 0.025845123
0.17939709 -0.17584845 0.04016779 0.2075496 0.04999334 -0.07721632 0.01760518 -0.024839206
0.2712879 -0.0999071 -0.13844669 0.0029258782 0.19655447 0.23258625 0.26076144 0.16755055
0.00056380103 -0.118919104 -0.07305651 -0.0752591 0.28151157 0.120340705 -0.10603541 0.14370324
-0.07622766 -0.15488055 0.10376372 -0.07294 0.10980071 -0.05634051 -0.15567598 0.12727425
0.15867952 -0.13830422 0.25694165 0.24214034 0.10563753 -0.049328607 -0.117983475 -0.16317092
-0.07388251 0.07421872 -0.025304465 0.18168627 0.003431433 0.06884916 0.11141359 0.069377966
0.18346687 -0.15655674 -0.0035830666 0.06458277 0.24993925 0.24495362 0.044175316 -0.06858943
0.018806286 -0.032796625 0.02863921 -0.01725212 -0.03367456 -0.11633888 -0.06369678 -0.0025532027
0.009462556 -0.08965994 0.21077774 0.13550995 0.08647599 0.10595655 0.09065394 -0.09218693
0.15095772 0.07517213 0.25776196 0.22931203 -0.097501665 0.088091046 0.020151457 0.048630226
0.21221563 0.070275374 0.21068665 0.28701723 0.09897676 -0.06748942 -0.13158445 -0.15056321
0.24520251 0.10305276 0.098122336 0.2638991 0.004597134 -0.10036944 0.15397811 0.1493723
0.16900457 -0.15655345 0.013823486 0.0415322 0.09206901 0.24466136 0.25475955 0.12046669
-0.14292018 0.022395916 -0.16096728 -0.15928127 -0.067867905 -0.08233003 -0.1125367 -0.1685677
0.2010793 -0.15384121 -0.10090026 -0.16464221 0.0993057 0.26328373 0.21862422 0.013786327
-0.10605969 -0.100193046 -0.0059681055 0.19111568 -0.17719206 -0.18367429 0.14201301 0.27087545
0.20488884 -0.016581712 0.087488204 0.010197002 -0.17661008 0.14860205 -0.01118006 0.1686833

decoder.2.bias f4 [36]
00000000: 81b2 363c ffff 333e 92c5 61be 2c8f 68be
00000010: 4560 083e b407 503e 9f6c 7f3e 9429 833e
00000020: a443 4b3e 53b2 f73d d4db 6e3e 4d29 7fbd
00000030: 9f64 1a3e d5a5 e13d 3d4e 6d3e b295 793e
00000040: 0a14 033e f8f3 2b3e 77b8 7f3e c47e 403b
00000050: 6ea1 313e 4057 e13c 8fd2 fdbd 1a0d a43d
00000060: 5e59 2c3e 14a9 b2bd bf43 3f3d 80b2 eebd
00000070: 42f4 10be ac2f 053e d8eb 2b3d debc c6bd
00000080: 9e31 0bbe 7e71 1ebe 69cb 0bbe e889 23be
0.011150957 0.17578124 -0.22048023 -0.22710866 0.13317974 0.20315439 0.2494378 0.2561766
0.19850022 0.120945595 0.23326045 -0.062295247 0.15077446 0.11017958 0.23174377 0.2437351
0.12800613 0.16792285 0.24972712 0.0029372433 0.17346737 0.027507424 -0.123936765 0.080103114
0.16830966 -0.08723655 0.046695467 -0.1165514 -0.14155677 0.13006467 0.041972965 -0.09703992
-0.13593146 -0.15472981 -0.13651814 -0.15970576
