examples/variational_autoencoder/autoencoder_models/saved_models/model_dim16.pth (torch, 907043 bytes, 22 tensors)

encoder.0.weight f4 [128, 784]
00000000: 0ea3 b686 2e77 b686 0e75 b686 0e5b b606
00000010: 0ea2 b686 0e82 b686 0e6c b606 ae68 b606
00000020: ae81 b606 2e7b b606 ce78 b606 ae9e b686
00000030: ce7c b606 6ead b606 2e8b b606 4e97 b606
00000040: 6e6a b606 0e63 b686 4e80 b606 ae9e b686
00000050: acb9 b686 2e89 b686 0cb3 b606 0e9a b606
00000060: 0ea2 b606 0e5b b606 8e6e b606 ae91 b686
00000070: ae89 b686 0e9a b606 ce5c b686 4e80 b606
00000080: ce7a b686 8e70 b606 2e89 b686 0e9c b606
00000090: 2e75 b686 aea3 b606 0e93 b606 0e95 b686
000000a0: 0e95 b686 0e62 b686 0cb8 b606 ce5c b686
000000b0: 0cb3 b686 4e5e b686 ccb7 b686 8e86 b686
000000c0: 2e84 b606 6e91 b686 ae6c b606 6e91 b686
000000d0: 6cb2 b686 0cb3 b686 2e88 b686 0e84 b686
000000e0: ae60 b686 2cb5 b606 6e6a b686 ee5c b606
000000f0: ae5e b686 4e79 b606 ae79 b686 4e5e b606
00000100: 0e6c b686 2ead b686 ae9e b606 4e9c b606
00000110: 2cb7 b686 ee94 b686 ee84 b606 4e5e b606
00000120: 42a3 b606 eea4 b606 ae69 b686 ce9e b686
00000130: 0e95 b606 4e64 b606 0e95 b606 ae61 b606
00000140: 0ea3 b686 ce71 b686 8e70 b606 0e95 b686
00000150: 84b1 b606 ae9e b686 0e95 b606 acb1 b686
00000160: 0e62 b606 acb9 b686 8e68 b606 ce7a b686
00000170: ae7b b686 0e9b b606 cea9 b686 ae8b b606
00000180: ae91 b606 ee94 b686 acb1 b686 4e80 b686
00000190: 8eae b606 ce5c b686 ae7b b686 aea9 b686
000001a0: 8ea3 b686 0e6b b686 0cb4 b606 2e7b b606
000001b0: aea1 b606 8e66 b686 ae9b b606 4e62 b686
000001c0: ce6e b686 2cb6 b686 ccb8 b606 8e66 b686
000001d0: ce86 b686 2cb0 b686 ce9e b686 0cb3 b686
000001e0: 0e86 b606 ce6e b686 0e96 b606 ceaa b606
000001f0: ae7b b686 0e95 b686 f29e b606 ae60 b686
00000200: 8eaa b606 a65e b686 0e93 b686 4e97 b686
00000210: 0e85 b686 8e62 b686 8cb7 b606 ae79 b686
00000220: ae99 b606 2ead b606 0e95 b686 0e89 b606
00000230: 0ea2 b686 ae60 b686 ae60 b606 0e95 b686
00000240: 2cb0 b606 8e68 b686 ce78 b686 4ea4 b606
00000250: 0ea3 b606 0e93 b606 8ea3 b686 8e85 b606
00000260: ae6c b606 6e6b b686 6278 b686 6cb5 b686
00000270: ce62 b686 eea4 b686 0e74 b686 0e63 b686
00000280: 8e7d b686 4e5e b686 4e80 b686 2e89 b606
00000290: ce7d b686 6e7a b686 2e69 b686 6e6a b606
000002a0: ce5c b686 4e79 b606 0e8b b606 0e5b b606
000002b0: acb9 b686 2e69 b606 4ea4 b686 4e79 b606
000002c0: 8ea3 b606 4e9f b686 0e93 b606 2e7b b686
000002d0: ae68 b686 8e9d b686 8eaa b686 927a b686
000002e0: 8e7d b686 0e62 b686 0e95 b686 6e8d b686
000002f0: 0e74 b686 ae5e b606 4e66 b606 0ea3 b686
00000300: 4ea4 b686 8e68 b606 acb8 b686 4e9f b686
00000310: 8e93 b606 ce81 b686 4ea4 b606 ce6e b686
00000320: 0e93 b606 acb8 b686 0e64 b686 ce5c b686
00000330: 8e5d b606 ce66 b686 2e84 b686 6e5a b686
00000340: cea1 b606 4e84 b686 ce89 b686 529e b686
00000350: 0cb0 b686 0e62 b686 8e65 b686 8e82 b686
00000360: 4e84 b686 8e6e b606 0e83 b606 4e5e b686
00000370: acb9 b686 8e82 b686 ce9d b606 ae68 b606
00000380: acb1 b606 8e7d b686 ce7a b686 8e62 b686
00000390: 0cb8 b606 0cb3 b606 0e6b b606 ce7d b686
000003a0: 0e7d b606 0e84 b686 0e5b b686 ae69 b606
000003b0: 6e6b b686 ce8b b686 acb8 b686 8eae b686
000003c0: ae63 b686 eea9 b686 0e95 b686 0e6d b686
000003d0: 6cb5 b686 ae5f b606 4e83 b606 8e96 b686
000003e0: 0e8d b606 2e84 b686 2e8b b686 0ea9 b606
000003f0: 4e7a b686 ae81 b606 0ea4 b686 ae81 b686
-6.870038e-35 -6.863591e-35 -6.863279e-35 6.8594584e-35 -6.869891e-35 -6.865189e-35 6.8619563e-35 6.8614604e-35
6.865134e-35 6.864179e-35 6.86383e-35 -6.869395e-35 6.8644175e-35 6.8715623e-35 6.86653e-35 6.8683113e-35
6.8617175e-35 -6.860634e-35 6.864932e-35 -6.869395e-35 -6.873361e-35 -6.866236e-35 6.8723877e-35 6.8687154e-35
6.869891e-35 6.8594584e-35 6.8623237e-35 -6.867485e-35 -6.8663093e-35 6.8687154e-35 -6.8597155e-35 6.864932e-35
-6.8641236e-35 6.8626175e-35 -6.866236e-35 6.869009e-35 -6.863297e-35 6.8701297e-35 6.867687e-35 -6.867981e-35
-6.867981e-35 -6.860487e-35 6.8731224e-35 -6.8597155e-35 -6.8723877e-35 -6.859936e-35 -6.8730856e-35 -6.86585e-35
6.865501e-35 -6.867448e-35 6.862048e-35 -6.867448e-35 -6.872296e-35 -6.8723877e-35 -6.866089e-35 -6.865483e-35
-6.860285e-35 6.8727e-35 -6.8617175e-35 6.859734e-35 -6.859991e-35 6.863903e-35 -6.8639583e-35 6.859936e-35
-6.8619563e-35 -6.8715256e-35 6.869395e-35 6.869046e-35 -6.872994e-35 -6.8679623e-35 6.8656114e-35 6.859936e-35
6.8700677e-35 6.8703133e-35 -6.8616073e-35 -6.8694134e-35 6.867981e-35 6.8608175e-35 6.867981e-35 6.860432e-35
-6.870038e-35 -6.862801e-35 6.8626175e-35 -6.867981e-35 6.8721627e-35 -6.869395e-35 6.867981e-35 -6.8721856e-35
6.860487e-35 -6.873361e-35 6.861442e-35 -6.8641236e-35 -6.864252e-35 6.8688623e-35 -6.8710297e-35 6.866603e-35
6.867485e-35 -6.8679623e-35 -6.8721856e-35 -6.864932e-35 6.8717276e-35 -6.8597155e-35 -6.864252e-35 -6.8710113e-35
-6.8701113e-35 -6.8618094e-35 6.8725346e-35 6.864179e-35 6.869836e-35 -6.861148e-35 6.868954e-35 -6.8605237e-35
-6.8623604e-35 -6.872847e-35 6.8732326e-35 -6.861148e-35 -6.865887e-35 -6.871965e-35 -6.8694134e-35 -6.8723877e-35
6.8657767e-35 -6.8623604e-35 6.8681277e-35 6.8711766e-35 -6.864252e-35 -6.867981e-35 6.869434e-35 -6.860285e-35
6.87114e-35 -6.8599864e-35 -6.867687e-35 -6.8683113e-35 -6.86563e-35 -6.8605604e-35 6.873049e-35 -6.8639583e-35
6.8686603e-35 6.8715256e-35 -6.867981e-35 6.8662175e-35 -6.869891e-35 -6.860285e-35 6.860285e-35 -6.867981e-35
6.871965e-35 -6.861442e-35 -6.86383e-35 6.8702215e-35 6.870038e-35 6.867687e-35 -6.8701113e-35 6.865703e-35
6.862048e-35 -6.8618645e-35 -6.863768e-35 -6.8727366e-35 -6.860597e-35 -6.8703133e-35 -6.863132e-35 -6.860634e-35
-6.8645277e-35 -6.859936e-35 -6.864932e-35 6.866236e-35 -6.8645644e-35 -6.8640685e-35 -6.861534e-35 6.8617175e-35
-6.8597155e-35 6.863903e-35 6.8665113e-35 6.8594584e-35 -6.873361e-35 6.861534e-35 -6.8702215e-35 6.863903e-35
6.8701113e-35 -6.869487e-35 6.867687e-35 -6.864179e-35 -6.8614604e-35 -6.8692297e-35 -6.87114e-35 -6.864089e-35
-6.8645277e-35 -6.860487e-35 -6.867981e-35 -6.8668603e-35 -6.863132e-35 6.859991e-35 6.8611114e-35 -6.870038e-35
-6.8702215e-35 6.861442e-35 -6.873214e-35 -6.869487e-35 6.8677603e-35 -6.865152e-35 6.8702215e-35 -6.8623604e-35
6.867687e-35 -6.873214e-35 -6.860781e-35 -6.8597155e-35 6.859826e-35 -6.861185e-35 -6.865501e-35 -6.8593665e-35
6.869854e-35 -6.8655195e-35 -6.8663277e-35 -6.869342e-35 -6.871947e-35 -6.860487e-35 -6.861001e-35 -6.8652624e-35
-6.8655195e-35 6.8623237e-35 6.865336e-35 -6.859936e-35 -6.873361e-35 -6.8652624e-35 6.8692664e-35 6.8614604e-35
6.8721856e-35 -6.8645277e-35 -6.8641236e-35 -6.8605604e-35 6.8731224e-35 6.8723877e-35 6.8618094e-35 -6.8645644e-35
6.864454e-35 -6.865483e-35 -6.8594584e-35 6.8616073e-35 -6.8618645e-35 -6.8666216e-35 -6.873214e-35 -6.8717276e-35
-6.8607257e-35 -6.871048e-35 -6.867981e-35 -6.862103e-35 -6.8727366e-35 6.860138e-35 6.8653726e-35 -6.868201e-35
6.866805e-35 -6.865501e-35 -6.86653e-35 6.8709195e-35 -6.86405e-35 6.865134e-35 -6.870185e-35 -6.865134e-35

encoder.0.bias f4 [128]
00000000: 4e9e b686 0265 b686 f4f2 433f f2ae b686
00000010: 8623 5d3f 9a90 b686 19de c0be 8ead b686
00000020: 3412 cbbe 6e6a b686 8212 7fbe 5c52 813e
00000030: 9e5d b686 71c0 17bf 2e6d b686 ae8b b686
00000040: ce5d b686 0e8f b686 5465 debd aea3 b686
00000050: a874 04bf a990 9abd a791 8b3f fc4f 093e
00000060: 2f20 0f3f 358b 65be 62f2 773e 1282 b686
00000070: ae82 b686 ae61 b686 aea8 b686 0cb3 b686
00000080: 9c0a 0540 0e82 b686 4e95 b686 0cb3 b686
00000090: 5e37 013f 8e5e b686 0e83 b686 0e9c b686
000000a0: 2e7e b686 fdd2 9d3f ce7d b686 41b6 0f3f
000000b0: ce8d b686 0e93 b686 2e6e b686 6e5e b686
000000c0: 8278 b686 8ce7 fa3f 4e97 b686 f460 d93e
000000d0: aea2 b686 6e5c b686 32a3 b686 90af b686
000000e0: 3639 103c deb3 123f 6e9c b686 a9d4 833f
000000f0: 4e5d b686 0ea3 b686 ae68 b686 0e73 b686
00000100: 7df9 b83e bb41 833e b082 943d 4101 0440
00000110: a2a5 b686 02ea 49be 0e89 b686 acb1 b686
00000120: aea2 b686 0fdd 12bf ee71 b686 b80c 713f
00000130: ae99 b686 de71 b686 59ca a3be 2e69 b686
00000140: 510d 64bf de61 b686 dcea cc3e c6ea 823f
00000150: 8eae b686 e931 953f dea6 b686 8ea3 b686
00000160: e723 fd3d 0e9e b686 567f c73f 6eae b686
00000170: 8cb7 b686 f4a6 2a3f 2e79 b686 183b dc3d
00000180: 23c6 60bb 8ea3 b686 766d b686 fe69 b686
00000190: 6f92 483f 36fc 823f 1eaa b686 4e7d b686
000001a0: ce7d b686 6369 6f3e 0e5b b686 6e6a b686
000001b0: df62 a53e 867e 133f ce70 b686 4e64 b686
000001c0: c225 87bd acb8 b686 39c6 9b3b d280 b686
000001d0: ccaf b686 83e9 8c3f eff7 243f 0e65 b686
000001e0: 03b3 4c3f 8fe7 e63e 328d b686 4129 1a3f
000001f0: acb9 b686 0e5e b686 be6a b686 0e75 b686
-6.86934e-35 -6.860921e-35 0.7654259 -6.871785e-35 0.8638233 -6.8673264e-35 -0.37669447 -6.8715807e-35
-0.39662325 -6.8617175e-35 -0.24909404 0.25258148 -6.859835e-35 -0.5927802 -6.8621216e-35 -6.866603e-35
-6.8598625e-35 -6.867099e-35 -0.108591706 -6.8701297e-35 -0.51740503 -0.07547123 1.0903825 0.13409418
0.55908483 -0.22416385 0.24213555 -6.865191e-35 -6.865281e-35 -6.860432e-35 -6.8708644e-35 -6.8723877e-35
2.0787725 -6.865189e-35 -6.8680175e-35 -6.8723877e-35 0.5047511 -6.8599727e-35 -6.865336e-35 -6.869009e-35
-6.8646195e-35 1.2330014 -6.8645644e-35 0.5613747 -6.8669154e-35 -6.867687e-35 -6.8622685e-35 -6.8599543e-35
-6.863786e-35 1.9601912 -6.8683113e-35 0.42456782 -6.869983e-35 -6.8596604e-35 -6.8700585e-35 -6.8718757e-35
0.008802703 0.57305706 -6.8690644e-35 1.0299274 -6.859789e-35 -6.870038e-35 -6.8614604e-35 -6.862985e-35
0.36127844 0.25636086 0.07251489 2.0625765 -6.8704167e-35 -0.19718173 -6.8662175e-35 -6.8721856e-35
-6.869983e-35 -0.5736856 -6.8628196e-35 0.9416003 -6.8686603e-35 -6.8628104e-35 -0.31990317 -6.861534e-35
-0.8908282 -6.8604594e-35 0.40022933 1.0227897 -6.8717276e-35 1.1655856 -6.870598e-35 -6.8701113e-35
0.123603635 -6.869303e-35 1.5585735 -6.871709e-35 -6.873049e-35 0.66661 -6.863885e-35 0.10753459
-0.0034297786 -6.8701113e-35 -6.862163e-35 -6.861653e-35 0.7834844 1.0233219 -6.8710756e-35 -6.864491e-35
-6.8645644e-35 0.23380046 -6.8594584e-35 -6.8617175e-35 0.32301995 0.57614934 -6.862654e-35 -6.8608175e-35
-0.065989986 -6.873214e-35 0.0047538546 -6.8650075e-35 -6.87191e-35 1.1008762 0.64440817 -6.860928e-35
0.7996065 0.4509854 -6.866826e-35 0.602192 -6.873361e-35 -6.859899e-35 -6.8617635e-35 -6.863279e-35

encoder.2.weight f4 [64, 128]
00000000: 4e66 b606 8e85 b606 ae8c b686 aea3 b606
00000010: aea9 b686 ae71 b686 2e75 b686 6eae b686
00000020: ae74 b686 ee84 b686 4e84 b686 0e73 b686
00000030: 2cb5 b606 4e61 b686 0cb0 b686 0e99 b606
00000040: 2e6b b606 0e5c b686 2e71 b686 0e65 b606
00000050: 0e75 b686 4e7d b686 2e84 b606 0e78 b686
00000060: ae92 b686 ae95 b686 8e6e b686 ae60 b606
00000070: 0ea4 b686 0cb7 b606 6e5e b686 ae60 b606
00000080: 2e5c b686 ae9f b686 0ea9 b606 ce86 b606
00000090: ee64 b686 0e9d b686 0ea8 b686 8e7a b686
000000a0: ee6f b606 627a b606 ae68 b606 0e99 b686
000000b0: 6ead b606 0ea2 b606 2e6b b686 6eab b606
000000c0: 8eaa b606 6e7a b686 4e64 b686 4cb3 b686
000000d0: 665a b686 8e9d b686 0eac b686 ceaa b686
000000e0: 4e7c b686 0e99 b686 8e62 b686 ce8d b686
000000f0: 2cb5 b686 ce61 b686 2e6e b686 8e6e b606
00000100: f280 b686 0e5b b686 ce7d b606 0ea9 b686
00000110: cea1 b686 8e5b b686 ccb5 b606 2cb0 b606
00000120: 8e65 b686 8e90 b686 2e6d b686 ee71 b686
00000130: 6eaa b606 4e5e b686 ce86 b686 2ea8 b686
00000140: 8cb1 b686 4e97 b686 2cb3 b686 3284 b686
00000150: 0cb0 b606 2cb4 b686 6e8d b606 4e79 b686
00000160: 4e92 b686 8ea1 b606 4e79 b686 8cb4 b686
00000170: 0e6b b686 8e98 b686 4e84 b686 0e8b b686
00000180: 2cb6 b686 ee94 b686 0e93 b606 0e95 b606
00000190: 8e7a b686 4ea0 b686 ae91 b686 8ea0 b606
000001a0: ae81 b606 6ea9 b686 ee84 b606 0cb3 b606
000001b0: 0e62 b686 aeac b686 acb9 b686 2e95 b606
000001c0: 5e6f b686 8e9d b606 2ea0 b686 0e6c b686
000001d0: 4e9a b686 aead b686 8673 b686 8e78 b686
000001e0: ae6b b686 ae99 b686 6e7a b686 2e94 b686
000001f0: aea3 b686 acb1 b606 ae68 b686 ce7a b686
00000200: 8e98 b606 0e66 b606 f81a 263e 0e82 b686
00000210: d504 0f3e ee6d b686 25a2 33be a26a b606
00000220: a72e eabd 8e68 b686 7cee babe cf90 dabe
00000230: a637 3006 3615 eb3c 529d b606 8e66 b686
00000240: 665a b686 4e79 b606 30ab 74bc 8e93 b606
00000250: 8800 7ebe 7b4f 1c3f 903d 75be 768a 70bc
00000260: b548 f6bb 3cc8 c2be a7e5 233f 4cb8 b606
00000270: ba86 b686 8e88 b686 acb1 b686 2cb6 b606
00000280: b962 ddbe aea9 b686 4e7a b686 ae98 b686
00000290: 6a77 0d3d ae6c b606 6c4f af06 8ea1 b686
000002a0: ce81 b606 077e 2fbf 0e6b b606 d440 a2bd
000002b0: 0e5b b606 527d b686 6eae b686 8eaa b606
000002c0: 8684 b606 cdca 13be 6e67 b606 949c d0bd
000002d0: 2e6d b606 2e6d b686 ce81 b606 0e74 b686
000002e0: b91d 5fbd bfce 1cbe 4e9e b606 27eb cd3e
000002f0: 8e60 b606 ae68 b606 8e6a b606 0e65 b686
00000300: aea7 c2be 575e 84bd a2c6 0d3e 47e4 723e
00000310: d85d b686 ef32 a5be acb9 b686 6ead b686
00000320: 2e69 b686 7d08 d73c 0e76 b606 4e1b 843e
00000330: 529d b606 da9e b686 07b2 46bd 0e75 b606
00000340: 077c 98be 0ea9 b606 4a60 9a3b a67e c13d
00000350: 6e7a b686 c35a 42be 0cb3 b606 ae5f b606
00000360: e3f8 75be a65e b686 aeff 0cbd ce7c b606
00000370: 0e9d b606 7e8a 1fbd 2cb6 b606 92a9 d4bd
00000380: 7762 f2be eea6 b686 ae9e b686 4e7e b686
00000390: fcb5 bc3d 5ee2 7b3e 90cd 1206 ae68 b606
000003a0: 8e72 b606 e802 cebe ae99 b686 62a8 b606
000003b0: e4a0 4abf 24d7 013f ce81 b686 5684 b606
000003c0: c682 4bbe 6e63 b606 49c4 fc3d 54b1 5c06
000003d0: 0670 b606 a4e5 3fbe f6af e03d 6ead b606
000003e0: 1e8e c9bd db63 bfbe ae5b b686 4452 59bf
000003f0: 2e6e b606 0ea3 b606 8ea4 b606 4e9e b686
6.8611114e-35 6.865703e-35 -6.86675e-35 6.8701297e-35 -6.8710113e-35 -6.862783e-35 -6.863297e-35 -6.871709e-35
-6.8632236e-35 -6.8656114e-35 -6.8655195e-35 -6.862985e-35 6.8727e-35 -6.860377e-35 -6.871947e-35 6.8685685e-35
6.861828e-35 -6.8596053e-35 -6.8627094e-35 6.860928e-35 -6.863279e-35 -6.864491e-35 6.865501e-35 -6.8637196e-35
-6.867632e-35 -6.8680726e-35 -6.8623237e-35 6.860285e-35 -6.870185e-35 6.8729754e-35 -6.8599543e-35 6.860285e-35
-6.8596237e-35 -6.869542e-35 6.8709195e-35 6.865887e-35 -6.8609094e-35 -6.869156e-35 -6.8707725e-35 -6.864087e-35
6.8625257e-35 6.8640616e-35 6.8614604e-35 -6.8685685e-35 6.8715623e-35 6.869891e-35 -6.861828e-35 6.8712684e-35
6.87114e-35 -6.8640685e-35 -6.8608175e-35 -6.8724244e-35 -6.859362e-35 -6.8692297e-35 -6.87136e-35 -6.8711766e-35
-6.864344e-35 -6.8685685e-35 -6.8605604e-35 -6.8669154e-35 -6.8727e-35 -6.86045e-35 -6.8622685e-35 6.8623237e-35
-6.865026e-35 -6.8594584e-35 6.8645644e-35 -6.8709195e-35 -6.869854e-35 -6.859532e-35 6.872792e-35 6.871965e-35
-6.861001e-35 -6.8673195e-35 -6.8621216e-35 -6.8628196e-35 6.8711215e-35 -6.859936e-35 -6.865887e-35 -6.870791e-35
-6.872167e-35 -6.8683113e-35 -6.872406e-35 -6.8655035e-35 6.871947e-35 -6.872553e-35 6.8668603e-35 -6.863903e-35
-6.8675766e-35 6.8698174e-35 -6.863903e-35 -6.872608e-35 -6.8618094e-35 -6.868495e-35 -6.8655195e-35 -6.8665113e-35
-6.872847e-35 -6.8679623e-35 6.867687e-35 6.867981e-35 -6.864087e-35 -6.869634e-35 -6.867485e-35 6.8696705e-35
6.865134e-35 -6.8709746e-35 6.8656114e-35 6.8723877e-35 -6.860487e-35 -6.871452e-35 -6.873361e-35 6.867999e-35
-6.862443e-35 6.8692297e-35 -6.8696154e-35 -6.8619563e-35 -6.868752e-35 -6.871599e-35 -6.863054e-35 -6.863793e-35
-6.861901e-35 -6.8686603e-35 -6.8640685e-35 -6.867852e-35 -6.8701297e-35 6.8721856e-35 -6.8614604e-35 -6.8641236e-35
6.868495e-35 6.8610747e-35 0.16221225 -6.865189e-35 0.13966687 -6.862232e-35 -0.17542322 6.8617474e-35
-0.114346795 -6.861442e-35 -0.36510074 -0.42688605 3.3142805e-35 0.028696638 6.869195e-35 -6.861148e-35
-6.859362e-35 6.863903e-35 -0.014933392 6.8677603e-35 -0.2480489 0.6105878 -0.23949265 -0.014681449
-0.0075159916 -0.38043392 0.64022297 6.873159e-35 -6.8658754e-35 -6.866144e-35 -6.8721856e-35 6.872847e-35
-0.43239382 -6.8710113e-35 -6.86405e-35 -6.8685134e-35 0.03453771 6.862048e-35 6.5944384e-35 -6.8698174e-35
6.865152e-35 -0.6855168 6.8618094e-35 -0.07922521 6.8594584e-35 -6.864493e-35 -6.871709e-35 6.87114e-35
6.8655517e-35 -0.14432831 6.861277e-35 -0.10186115 6.8621216e-35 -6.8621216e-35 6.865152e-35 -6.863132e-35
-0.054471705 -0.15313242 6.86934e-35 0.4021847 6.8602665e-35 6.8614604e-35 6.861736e-35 -6.860928e-35
-0.38018554 -0.064633064 0.13845304 0.23719893 -6.859868e-35 -0.32265422 -6.873361e-35 -6.8715623e-35
-6.861534e-35 0.026249165 6.8634257e-35 0.25802082 6.869195e-35 -6.86942e-35 -0.048509624 6.863279e-35
-0.29782125 6.8709195e-35 0.0047111856 0.094479844 -6.8640685e-35 -0.18979935 6.8723877e-35 6.860138e-35
-0.24020724 -6.8599864e-35 -0.034423523 6.8644175e-35 6.869156e-35 -0.038950436 6.872847e-35 -0.103839055
-0.47340748 -6.870607e-35 -6.869395e-35 -6.864638e-35 0.09214398 0.24598071 2.7610572e-35 6.8614604e-35
6.8629114e-35 -0.40236592 -6.8686603e-35 6.870821e-35 -0.7915175 0.50718904 -6.865152e-35 6.865524e-35
-0.19874105 6.860689e-35 0.12342126 4.150768e-35 6.8625395e-35 -0.18739945 0.10971062 6.8715623e-35
-0.0984156 -0.3738087 -6.85955e-35 -0.8489115 6.8622685e-35 6.870038e-35 6.870258e-35 -6.86934e-35

encoder.2.bias f4 [64]
00000000: 0e83 b686 b17f 473e 46a6 123f 337c 0b3f
00000010: 1062 b686 6a17 af3f 4f41 f93e 90fe 243e
00000020: 0557 ca93 cc2c 2ebd 43d6 a5bf 9bb8 473e
00000030: 52cf 943e c16a e03c f3ae 63c0 0e97 b686
00000040: 631e ecbe cfcb a3be 9407 8b3c 566c b686
00000050: 54c4 4a3d c0ee 1a3f c450 a4bd 8fa5 92be
00000060: b48c 823c c598 b8bf 0cb6 b686 bb0b 69be
00000070: 5341 343f fe00 1d3f 0c06 0440 03d3 9c3e
00000080: d589 50bf 6f7e f3be f28b cbbd 4256 163f
00000090: 2cbc 173f 07b4 443f d104 c8bd ce8d b686
000000a0: b5d5 f83f 15d2 5640 ddef 6ebe b00f 17bf
000000b0: 6387 cc3f 0010 813e 12fd 6c3f 9a71 c33f
000000c0: 0cb3 b686 cd84 553f 5726 233e 3e30 c03d
000000d0: 56c0 4e3f 3342 363f d736 018e 01a0 993f
000000e0: e0cf ba3e f7f4 bcbe 01b8 cb3f 8400 2dbf
000000f0: d8d1 a03f c7f8 f03f be84 b686 4a89 e43e
-6.865336e-35 0.19482304 0.57284963 0.5448639 -6.860488e-35 1.367902 0.4868264 0.16112733
-5.1077777e-27 -0.04252319 -1.2956012 0.19504015 0.29064423 0.027394654 -3.557553 -6.8682746e-35
-0.46116933 -0.3199143 0.016971387 -6.8619976e-35 0.04950364 0.60520554 -0.08023217 -0.28641936
0.015936233 -1.4421622 -6.8728285e-35 -0.22758381 0.70412177 0.6132964 2.062869 0.3062974
-0.81460315 -0.475574 -0.09938802 0.5872537 0.592715 0.768372 -0.09766544 -6.8669154e-35
1.9440218 3.3565724 -0.23333688 -0.5900831 1.5978817 0.2520752 0.92573655 1.5269043
-6.8723877e-35 0.8340576 0.15932594 0.093842015 0.8076223 0.7119476 -1.5926882e-30 1.2001954
0.3648672 -0.36905643 1.5915529 -0.6757891 1.2564039 1.8825921 -6.865584e-35 0.44635993

encoder.4.weight f4 [36, 64]
00000000: 6eae b686 63ae 88ad 31b0 03b9 0b75 b9b2
00000010: 0cb8 b606 3e0d f4b9 db08 a0af ffca eaba
00000020: 8e9d b686 295a 0739 7413 f9b8 091c 4530
00000030: d99e 4fb0 84f2 93ad 8a30 06b6 ce5e b686
00000040: 0e99 4eb9 e0fa 73b7 488e 3baf 2cb9 b686
00000050: e05a c5b6 fb04 cfac fe2c 8e34 353c 5138
00000060: 7c8b 4cab d4ab 87b6 ee71 b606 c129 82b2
00000070: 62eb cf2c d7ce 54b3 9666 a6ba e8ef d2af
00000080: a824 11ab f66a 3fb9 5d91 8cac 9114 b0b8
00000090: 93de 14b0 048b a7af b312 77b7 4e83 b606
000000a0: 5047 9bb8 b34b 0aba c8f1 31ac a01a 47b1
000000b0: 8182 7ab7 159e 7fab aa31 7eae 651c 61ba
000000c0: 8e6e b686 2a8b a1b1 4ea7 b606 4d54 7036
000000d0: e58e 9bb2 baee 09af 4e67 b606 7c45 87ae
000000e0: 2137 07ba f93a 662f 36be 3cba 90b6 59a9
000000f0: a2a9 83b9 ea9e 11b9 6eaa b686 96e2 80b4
00000100: 0e86 b606 2abf ee3a c447 a8bd 462a 87bb
00000110: 6e6a b686 c364 c73c a6d2 af3c 9351 5b3c
00000120: 6e8d b686 2db2 1dbc 12b1 ba3a 1545 623b
00000130: 1efa a1bc c8b9 b5ba bc38 5a3c ae60 b686
00000140: 40b4 e4bc 9fad abbc 3174 0dbd 0e6c b686
00000150: 610f 363d 102a 83bd 5793 17bd 6562 1e3c
00000160: e855 72bc fa01 7cbd 0eaf b606 69b0 9a3c
00000170: 942d 34bd 06c9 873b aee5 01bc 00f1 b23c
00000180: 93b1 493c 6f14 6dbd 2c23 3abd e2e5 72bd
00000190: 54d2 1c3c db2a 84bc 967e 58bc 4e66 b606
000001a0: b377 5cbc f15a 60bd 9461 40bd b010 a0bc
000001b0: e960 61bc 4fde 573c fd28 9abc f670 00bd
000001c0: acb6 b606 e3e8 97bc 5c41 7cbd 7d31 95bd
000001d0: 9031 373c f4b9 82bd ae72 b686 42e1 1bbc
000001e0: c1db 43bc a7b6 063a 012e 80bd cd13 14bd
000001f0: 69b4 dbbc 4e28 85bd 8e86 b606 eddd 003d
00000200: 8eab b606 dde8 4f3c 8138 31be a608 f53c
00000210: 30e8 2d06 1caf 3d3e 875c 763e 866d 9d3d
00000220: fafb 3a93 dfbc 193d db30 c23d fb9f 423d
00000230: 2ac1 4fbd 136e 7fbd d5ef 6fbe 0e74 b686
00000240: d158 ffbc 2dec 6e3d a2f0 2e3b 34b1 b606
00000250: ebe8 a53d bfff 123e c81a cf3c c1ea 8bbd
00000260: 3ad6 58c0 0c6a 213d 1ea9 b686 c470 d4bd
00000270: 214e 70bd 2858 0dbe 238d ea3d fb47 073e
00000280: d2f0 22bd e06d 133d b508 3c3d d1df 27be
00000290: 9e0b 63bd 1498 bcbd 4cba 8e3d d68e b686
000002a0: 8334 023d eb3b 1e3e 8b46 bebf c8b7 f0bb
000002b0: 8a98 bb3e 871f bd3e d943 763c ac2d 953e
000002c0: 4e9c b686 7dd1 3bbe 44c6 91bd 3190 febc
000002d0: fa81 cebd 49ce 4fbd be1d f58d bb3b 15be
000002e0: 9def 2fbd 9dce 07be 309d 233e 3413 b5be
000002f0: 971c e03d 9d6b 623d a67e b606 bcc1 243c
00000300: 2e85 b686 ffc8 623d 7b40 99be 6a1b 7d3c
00000310: 588c 8a06 eabe ca3b 94d7 833e 3d84 36be
00000320: 5f2b 5d92 c04b 47bc 5716 613d 43af 5dbb
00000330: d8a5 50bf ae82 bbbd dfd2 4dbe 4e66 b606
00000340: 1148 e8bd 02ce 46bd e967 2e3e 1c69 b606
00000350: 74e4 253d d382 c93d 631c f63b 935f 6dbf
00000360: 23b7 45bf 9aee 96be 2c83 2686 38b9 45bc
00000370: aa94 653e feee a93d d4ae e13c bbbd 0f3e
00000380: 34cc a6be 2ac5 bfbd 96e4 163e 8d9f 4fbd
00000390: 381f e63d 6d4b 643d 9e4d 92be 0e6c b606
000003a0: cd50 68be 9395 30bc 193a 78be f023 c03d
000003b0: 2f37 d33e a680 533e 2c80 db3c 9de9 c33e
000003c0: 2cb0 b606 f1e9 89be 0321 c33d 2d02 b83d
000003d0: 8a2a cabc d6e7 64bd 171c 8c8b a6d4 7e3e
000003e0: 87d4 8abf 0e65 663c 09bc 88be 3bcb cdbe
000003f0: 6d73 efbc 7dc0 e7bd 8eae b606 7dd1 29bd
-6.871709e-35 -1.5538853e-11 -0.0001255877 -2.159006e-08 6.8731224e-35 -0.00046549173 -2.9110123e-10 -0.0017913281
-6.8692297e-35 0.0001290819 -0.00011876869 7.1708023e-10 -7.55319e-10 -1.6819664e-11 -1.999581e-06 -6.8600094e-35
-0.00019702708 -1.454234e-05 -1.70581e-10 -6.8732877e-35 -5.8816368e-06 -5.883847e-12 2.6482297e-07 4.9885555e-05
-7.266893e-13 -4.043317e-06 6.8628196e-35 -1.515298e-08 5.9094266e-12 -4.9548216e-08 -0.0012695368 -3.836924e-10
-5.156522e-13 -0.00018255025 -3.995178e-12 -8.396165e-05 -5.4158383e-10 -3.04759e-10 -1.4726701e-05 6.8653726e-35
-7.404259e-05 -0.0005275562 -2.5287428e-12 -2.8973446e-09 -1.49315465e-05 -9.081358e-13 -5.7797024e-11 -0.00085873
-6.8623237e-35 -4.701538e-09 6.8706623e-35 3.5811856e-06 -1.8109356e-08 -1.254489e-10 6.8612584e-35 -6.151432e-11
-0.0005158056 2.093933e-10 -0.00071999745 -4.8342027e-14 -0.00025112653 -0.00013887478 -6.8711215e-35 -2.400672e-07
6.8657767e-35 0.001821493 -0.08216813 -0.0041249124 -6.8617175e-35 0.02434004 0.02146275 0.013386148
-6.8668603e-35 -0.009625 0.0014243445 0.003452604 -0.019772585 -0.0013864571 0.013319191 -6.860285e-35
-0.027917981 -0.020956812 -0.034534637 -6.8619563e-35 0.04444826 -0.06404507 -0.03700575 0.009667014
-0.014790989 -0.061525322 6.871801e-35 0.018882947 -0.04398878 0.004143837 -0.007928295 0.021843433
0.012310403 -0.057880815 -0.0454437 -0.059301265 0.0095716305 -0.016133716 -0.013213774 6.8611114e-35
-0.013456273 -0.05477423 -0.046968058 -0.019539207 -0.013756015 0.013175561 -0.018818373 -0.031357728
6.8729203e-35 -0.018543666 -0.06158577 -0.0728483 0.01118125 -0.06383124 -6.86293e-35 -0.009514155
-0.011954249 0.00051389117 -0.062587745 -0.036151696 -0.026819425 -0.06501828 6.86585e-35 0.031461645
6.871287e-35 0.012689796 -0.17306711 0.02991135 3.2708268e-35 0.1852383 0.24058734 0.076869056
-2.3600735e-27 0.037533637 0.09481975 0.04751585 -0.050721325 -0.062360834 -0.23431332 -6.863132e-35
-0.03117028 0.058330704 0.0026693721 6.872117e-35 0.08101066 0.14355372 0.025281325 -0.06831885
-3.3880754 0.039407775 -6.8709286e-35 -0.10373071 -0.05866826 -0.1380316 0.11452701 0.13211052
-0.039780445 0.035993457 0.04590674 -0.16393973 -0.055431 -0.09208694 0.06969127 -6.867067e-35
0.03178836 0.15452544 -1.4865278 -0.007346127 0.36639816 0.36938116 0.015030825 0.29136407
-6.869046e-35 -0.18341632 -0.07117894 -0.031074615 -0.10083385 -0.05073384 -1.5106451e-30 -0.14573567
-0.042953122 -0.1326241 0.15977931 -0.35366213 0.10942953 0.05527841 6.8646884e-35 0.0100559555
-6.865648e-35 0.055367466 -0.29932007 0.015448431 5.211605e-35 0.0061873095 0.2575041 -0.17823882
-6.9788763e-28 -0.012164056 0.054952946 -0.0033826388 -0.8150306 -0.091557845 -0.20099972 6.8611114e-35
-0.113418706 -0.048536308 0.17031826 6.8615235e-35 0.040501073 0.09839406 0.007510708 -0.9272396
-0.7723257 -0.29478914 -3.13175e-35 -0.012068085 0.22419992 0.08297537 0.027549185 0.1403722
-0.3257767 -0.09363778 0.14735636 -0.05068927 0.11236423 0.055735994 -0.28574842 6.8619563e-35
-0.22687073 -0.010777849 -0.24240912 0.093818545 0.4125304 0.20654544 0.026794516 0.3826417
6.871965e-35 -0.26936296 0.09527781 0.0898479 -0.024678487 -0.05588516 -5.3968303e-32 0.24885806
-1.0846108 0.014062179 -0.2670596 -0.40194115 -0.029229844 -0.11316011 6.8717276e-35 -0.04145955

encoder.4.bias f4 [36]
00000000: 1424 71b8 671a 80bd eb2b c63f 245c 343f
00000010: d954 6e3e 4fc3 0540 8832 bb87 5b70 153f
00000020: b2fe c93f 24df d13e 6e68 b686 d3dd 1f3f
00000030: aa06 c23f 2fc7 59c0 6e7a b686 26a6 e03f
00000040: 9d19 26be edd2 cebf 491f 3b3f 2478 1940
00000050: de89 b686 75fc 6a8f 35b8 c03e 3ceb 9a8e
00000060: 555c e63e 2a50 c83f 0e8d b686 c3c5 203f
00000070: 3a5b dd3e 9ec7 f93f fe90 153e 9ab9 833f
00000080: e632 3a40 a297 b686 6e9e b686 e852 bb9b
-5.7492478e-05 -0.06255036 1.5482153 0.70453095 0.23274554 2.0900457 -2.8166332e-34 0.58374566
1.5780852 0.40990555 -6.8614237e-35 0.6244785 1.5158284 -3.4027822 -6.8640685e-35 1.7550704
-0.16220708 -1.615812 0.7309461 2.3979578 -6.866337e-35 -1.1585712e-29 0.3764054 -3.8190454e-30
0.4499232 1.5649464 -6.866805e-35 0.6280176 0.43233663 1.9514043 0.14606091 1.0291016
2.9093566 -6.8683595e-35 -6.869358e-35 -3.0990132e-22

encoder.6.weight f4 [18, 36]
00000000: 1385 8b38 7664 f43c 3a85 fa3d 0aad 7fbf
00000010: abd3 ac3d ad0d 943e 6426 9e87 7056 7fbe
00000020: 6d2b 1f3e 4bd2 ce3c fe36 4706 d732 79be
00000030: 9032 90bd 616c 66be 6e77 b606 dbda dabd
00000040: f6cd e2bd db94 933d c6d0 6f3d 7fb1 f2bd
00000050: 8e62 b606 f36b cc8d 8495 8cbd 5f57 108e
00000060: 5a6e 3cbc b93d c53e 4286 b686 d66f 4f3e
00000070: 8683 25bd d255 dc3d 54a0 c9bd cb5e 32be
00000080: 3714 b23d 54b9 b606 2e75 b606 e65a 2998
00000090: 09e0 9732 288b 923b c9ef 273e 6828 d5bc
000000a0: 86ed 2dc0 33a6 9cbd 6e66 b606 30cc 9abd
000000b0: 9921 713e e54c 00bf 6e5e b606 4657 dd3d
000000c0: 9524 2c3d 5e34 03bc 4e5c b686 25d1 a33e
000000d0: c690 34bd 8804 83be c37d 1abd 5c2a 573e
000000e0: eea6 b606 6f94 b18e b692 3dbd 8377 648e
000000f0: ae4c fdbc 97bc c4bd ce5d b606 c9dc 9e3c
00000100: fb8a adc0 b430 37be c5ab e73c b70e aebd
00000110: 1d5d af3c 8e78 b686 6e8a b686 07e8 ad97
00000120: ce5c b686 0ea2 b686 0e96 b686 ae68 b686
00000130: ae81 b686 ae9e b686 ce5d b686 4e67 b686
00000140: 2ea4 b686 4e86 b686 ee79 b606 0e98 b606
00000150: 6e7f b686 4e9a b686 8cb4 b686 0e95 b686
00000160: 0e5c b686 0ea9 b686 0e71 b686 865d b686
00000170: aea9 b686 2e7c b686 6e6a b686 4ea0 b686
00000180: 4e84 b686 0e8a b686 2e8b b686 2e89 b686
00000190: 2e65 b686 4ea4 b686 2e8d b686 0eaf b686
000001a0: 6e8a b686 4e5c b686 4e87 b606 ae69 b606
000001b0: a20f 84af 5231 523c cbd9 f8bd 1100 02be
000001c0: 07ea 7bbc daa5 443e 14e2 7387 842a f43b
000001d0: 8f71 f63d fcda 9b3c a9aa 8985 2c59 a6be
000001e0: 91a0 40bd 8dce 03bd 8e62 b686 27a4 48be
000001f0: b894 c93d 7039 bc3d c3e9 623d bccc 0c3e
00000200: 8eae b606 2ea1 258d d835 69bd fc7e 758d
00000210: c037 0bbd 52bd ef3b 1a89 b686 ba88 b7bd
00000220: 2110 02be a532 9b3e cd37 d3be 4971 f3bd
00000230: 16e7 a53e 5e6e b686 ce7b b686 35b0 8d96
00000240: 4184 e536 c77e 583c bf8d 073d 31ff 9cbd
00000250: 6221 8ebb 63bd 08bc 6ead b686 906b 893d
00000260: 16be 9d3c 7c34 443e 8e86 b606 bfc5 d13e
00000270: 5331 78bd 082b 8abd c293 b606 146f bc3d
00000280: d7a9 3c3e 72b9 e2bd f24c 1fbc f143 2abc
00000290: 4e97 b606 f622 c68c 000b 373d 4bf9 128d
000002a0: 6407 88bc a4c6 7d3d 666e b686 320b 513e
000002b0: 4807 f1bb 0c3a e9bc 3e47 003e 51ac 91bd
000002c0: 2532 843d 52a5 b606 2ea8 b606 f285 8195
000002d0: 8233 67b9 6eaa 433c 1e68 8f3d 05fd 05bc
000002e0: 461a 7c3d 1257 b9bc ccb6 b606 378f 433c
000002f0: 0f18 983d c414 a03d 0e9c b686 0ec1 79bd
00000300: 0ca8 03be 5a1a 853c acb8 b686 579d 8dbd
00000310: 3dc1 ab3d b9ca 6ebe d585 883d 2ee4 87bd
00000320: 6ead b686 0558 460f 8d5d 75c0 4471 b90e
00000330: be22 f5c0 0847 6cbd 8e61 b606 207d c53d
00000340: 4289 c3bb f6b3 b83d daf9 a0bd a527 0fbe
00000350: 8227 923d 8e6a b686 2e69 b606 1c2d 0519
00000360: 4db9 c3b9 87a3 653c f24d ee3d 9d56 963d
00000370: f501 c0bc 4b59 953e 0e75 b606 7fcc d43c
00000380: a4f7 2a3d fdfe 71bd cea9 b686 d2b2 96be
00000390: e54f 64be 5be3 68be 7ea3 b686 3623 51bd
000003a0: f348 50bd b633 2cbf 2776 f43c e9c0 73bd
000003b0: ae68 b606 27f3 c00e c206 7ac0 7dc3 250e
000003c0: 9d24 dbc0 c7ac 633e ae63 b686 7310 bfbd
000003d0: 1b2f 89bd 14ba a33c 5c97 003e bffc 80be
000003e0: 70e5 bd3d 0e64 b606 2e89 b606 0395 a418
000003f0: cd59 0f37 810d c6bc f910 573d 851c cdbe
6.6528235e-05 0.02983306 0.12232442 -0.9987341 0.0843881 0.28916684 -2.3795762e-34 -0.24935317
0.1554391 0.02524676 3.7468142e-35 -0.243358 -0.07040894 -0.22502281 6.863628e-35 -0.106862746
-0.1107444 0.07206126 0.05854871 -0.11850261 6.8605604e-35 -1.25984585e-30 -0.06864455 -1.7791438e-30
-0.011500919 0.38523653 -6.8658065e-35 0.20257506 -0.040408634 0.107585564 -0.09845033 -0.17418973
0.08695262 6.8733106e-35 6.863297e-35 -2.188863e-24 1.7680593e-08 0.004472155 0.16400065 -0.026020244
-2.7176223 -0.076488875 6.86113e-35 -0.07558477 0.23547973 -0.5011733 6.8599543e-35 0.10807662
0.042027075 -0.008008091 -6.859642e-35 0.31995502 -0.04408338 -0.25589395 -0.037717592 0.21012253
6.870607e-35 -4.3776805e-30 -0.046282493 -2.8160713e-30 -0.030920353 -0.09606283 6.8598625e-35 0.019392388
-5.4232154 -0.17889673 0.028280148 -0.084989004 0.021406705 -6.863793e-35 -6.8664195e-35 -1.1238435e-24
-6.8597155e-35 -6.869891e-35 -6.8681277e-35 -6.8614604e-35 -6.865134e-35 -6.869395e-35 -6.8598625e-35 -6.8612584e-35
-6.870203e-35 -6.8658134e-35 6.863995e-35 6.8684215e-35 -6.864803e-35 -6.868752e-35 -6.872608e-35 -6.867981e-35
-6.8596053e-35 -6.8709195e-35 -6.862691e-35 -6.859821e-35 -6.8710113e-35 -6.8643257e-35 -6.8617175e-35 -6.869634e-35
-6.8655195e-35 -6.8663644e-35 -6.86653e-35 -6.866236e-35 -6.860946e-35 -6.8702215e-35 -6.8668236e-35 -6.871801e-35
-6.8664195e-35 -6.859642e-35 6.8659603e-35 6.8616073e-35 -2.4021768e-10 0.012829142 -0.12150916 -0.12695338
-0.015375621 0.19203892 -1.8347727e-34 0.0074513573 0.12033378 0.019025318 -1.2946109e-35 -0.32489908
-0.047028128 -0.032179404 -6.8605604e-35 -0.19593869 0.09842819 0.09190643 0.055398714 0.13749975
6.8717276e-35 -5.1038564e-31 -0.056936115 -7.5649306e-31 -0.033988714 0.00731627 -6.8662244e-35 -0.089616254
-0.12701465 0.30312076 -0.4125351 -0.11886842 0.32402867 -6.862296e-35 -6.8642706e-35 -2.289098e-25
6.840128e-06 0.01321382 0.033094164 -0.076658614 -0.0043374756 -0.008345935 -6.8715623e-35 0.06709969
0.01925568 0.19160646 6.86585e-35 0.4097118 -0.060593914 -0.06746489 6.86779e-35 0.09200874
0.18424164 -0.11070527 -0.009722935 -0.010392175 6.8683113e-35 -3.0527772e-31 0.044688225 -4.52898e-31
-0.016605087 0.061957017 -6.8623007e-35 0.20414427 -0.0073556043 -0.028470062 0.12527177 -0.07112945
0.06454877 6.870371e-35 6.870791e-35 -5.2314014e-26 -0.00022049065 0.011942489 0.07002281 -0.008178
0.061548494 -0.022624526 6.8729387e-35 0.011936001 0.07426464 0.07816461 -6.869009e-35 -0.060975127
-0.12857074 0.016247917 -6.873214e-35 -0.06914776 0.08386467 -0.2331952 0.066661514 -0.06635319
-6.8715623e-35 9.779106e-30 -3.833835 4.5715092e-30 -7.660491 -0.05768493 6.8604135e-35 0.09643006
-0.00596729 0.090187 -0.078601554 -0.13979967 0.07136442 -6.861736e-35 6.861534e-35 6.885049e-24
-0.00037331358 0.014016039 0.11635961 0.07340739 -0.023438433 0.29169688 6.863279e-35 0.025976418
0.041740075 -0.059081066 -6.8710297e-35 -0.29433304 -0.22296102 -0.22742979 -6.870102e-35 -0.05105897
-0.05085082 -0.67266405 0.029841496 -0.059510145 6.8614604e-35 4.75658e-30 -3.9066625 2.0431944e-30
-6.8482194 0.22233878 -6.8607257e-35 -0.09329309 -0.06698438 0.01998619 0.12557739 -0.2519283
0.09272277 6.860781e-35 6.866236e-35 4.254347e-24 8.544373e-06 -0.024176361 0.05250642 -0.4006082

encoder.6.bias f4 [18]
00000000: ffb2 6e3f 17f4 793f 2ead b686 0a7c 113f
00000010: 0315 073f aaa1 aa3f c5a8 8f3f dd2c 8e3f
00000020: f124 c78f 4224 593f dd53 853f 0e63 b686
00000030: 4196 813f faec 9fbf 86b7 783e 77cd 4c88
00000040: 407c fe3e 2e33 9f3f
0.93241876 0.97638077 -6.8715256e-35 0.56829894 0.52766436 1.3330586 1.1223379 1.1107441
-1.9637144e-29 0.8482095 1.0416218 -6.860634e-35 1.0123979 -1.2494195 0.24288759 -6.163054e-34
0.4970417 1.2437494

mean_embedding.weight f4 [16, 18]
00000000: 4d88 fcb9 3602 e33a 4e82 b686 2987 213b
00000010: 95ef 23ba 320c 6a3a 3f3c 113b 0b14 fc39
00000020: cfa7 0c09 12e0 a0bb cd98 6cba c2cc 8e86
00000030: 48dd 87bb 04da a63b c511 a03b 0cb7 b606
00000040: c7ce 5d3b 6398 af3a 26a9 1f3a e94a ce3a
00000050: ee9d b686 793d 81b8 8439 1b3b 4ddb f73a
00000060: 0f16 103a 882f 6439 56a9 960b 909b 473a
00000070: cd54 4e3a 580a 4e86 4044 d83a 5b0b b9bb
00000080: 4864 03bb ae5f b686 327e 2a3c 8407 8a3b
00000090: 90d0 923a c59a 97ba 0e9d b686 c47e 193b
000000a0: 5698 23bb c54b d139 c262 31ba 4911 23bb
000000b0: 7363 cf8a e29f aa3b a43e dc3a eeab b686
000000c0: ec2d 793a 804f f8ba d0b4 a83b 4e66 b686
000000d0: 09b0 343a 42f2 133b a6d1 fc39 f173 643b
000000e0: ce7a b606 926b 9239 22aa 6e3b 629d 18bb
000000f0: 68a3 fdb9 589d 31bb 82a2 6c0b 28bf 2ebb
00000100: 6c22 7239 f8e7 3503 7fbc e03a 2f99 29bb
00000110: 1cfb 0cbb 0eac b606 f8b9 133b f473 8d3b
00000120: 8e09 1e3a 6692 c939 f29e b686 41be 12bb
00000130: 4ddf 353b 0eea 31bb d9ca 8bbb 0b22 07bc
00000140: 9d70 fd8a f830 8f3a dde0 b23a 7e5d b005
00000150: cc31 9e3b 31d4 27bc 082e 32bb ee91 b606
00000160: 3a95 77bb 500e 413b 3d64 2e3a d95f 20bb
00000170: 6e91 b686 b513 f8b9 b1f0 0fbb dfa2 4ebb
00000180: f308 553b 756e 3d3b a464 340b cefb 82bb
00000190: 1f20 84ba 32f3 a306 300c 0eba a2fc 633a
000001a0: 6379 213b 4e84 b606 db57 f03b 286e 3b3b
000001b0: 924f c13a d88a f13a 2e6e b606 eea5 1f3b
000001c0: 48ff 233b dfcb b43b e6d5 8cbb 394c 4d3a
000001d0: 60d1 5f0a 8725 f03a 94c7 95ba 16b3 b606
000001e0: b048 5e3a 1c1b 5c3b e5ba 143b 0e5b b606
000001f0: 3e66 023b 90c3 f8b9 205b 013b f370 483b
00000200: 4e77 b606 0e6c 553b 4525 083b 477d 163b
00000210: 2d85 70bb ddce dbbb 4f44 1b0a c3c1 1e3b
00000220: 86a1 92ba 0e48 c904 4705 c3bb 6fcf 8b39
00000230: ed4f d93a 8e62 b686 10fa eb3b 4501 193b
00000240: f4ea fc3d a419 cebd 0e8a b686 9da8 8b3d
00000250: a775 b83c a5dd d3be f7f1 92be 5f12 4a3d
00000260: 11f4 848f cce3 9ebc 07c0 2d3d 1e6c b606
00000270: fd0c da3b bbfc 9a3d cccc 3d3a 4c9a 960b
00000280: 8814 773d 7202 55bd dec4 12ba 7c42 c13a
00000290: 8e7b b606 4f3d 303b 23a9 7fbb c01f c438
000002a0: aa4a 1fba 5a8c 12bb eb1a b50a 0823 48ba
000002b0: 2ee2 7b3b bcb1 b686 e2f5 34bb 1561 1d3c
000002c0: 2e98 533b 8e62 b686 3ccb 493b c61a 0738
000002d0: f8c3 1fb9 8d8e 24bb ee6d b686 5cb5 2a38
000002e0: 3d1d 8bba 1262 cc3a 72cd 4839 b6f6 d139
000002f0: 0e3b 9b88 a63e a43a edb2 77bb 0e69 b686
00000300: 6bbc 25ba 0e23 f0ba 9103 24bb 8e85 b686
00000310: 5d26 0cbb 57a8 8f3b 0cab 39bb 8e03 8638
00000320: 2ea9 b606 0e18 b73a ab59 8fbb 94d8 a638
00000330: 3ab2 aaba 9cde 453b 53f0 1d89 6d8d c3ba
00000340: e6c0 9eb9 52a3 8b86 8a03 bebb 3e0c 023c
00000350: ab4c 303b 0e8c b686 c282 393c 5642 333b
00000360: eb78 a63a f0d5 40bb 0e90 b686 a6dd 01b8
00000370: 0787 8f39 82d4 283b b34a 4fb9 fa81 233b
00000380: 67e6 798a c993 49bb a45b a13a 6ea2 b606
00000390: 0fe0 5b3b fe86 ec3a 1d5c 103b 0e82 b686
000003a0: e031 e93b 88e9 39ba 9dd0 0f3a c55a 2f3a
000003b0: ae8b b606 d2fc 4ab9 4140 2dbb 4711 fb39
000003c0: 4415 5b3a 4c35 3cb9 49db 190b 2c68 88b9
000003d0: 782d c33a bc22 9606 5a71 bd3a 1cdd 31b9
000003e0: 8dec b4ba 2cb0 b606 96e2 d839 4e8a b2ba
000003f0: 3d0c 2e3a f0ca afbb 8e98 b686 4890 e0ba
-0.00048166738 0.0017319384 -6.8652257e-35 0.0024647212 -0.0006253657 0.0008928209 0.0022161154 0.0004808012
1.693079e-33 -0.0049095238 -0.00090254546 -5.371533e-35 -0.004146252 0.0050919075 0.004884931 6.8729754e-35
0.0033845173 0.0013396855 0.0006090574 0.0015738878 -6.869285e-35 -6.1626495e-05 0.0023685405 0.0018909961
0.0005496451 0.00021761481 5.8032687e-32 0.0007614428 0.00078709127 -3.8751893e-35 0.0016499832 -0.0056471056
-0.0020048786 -6.860138e-35 0.010406064 0.0042123217 0.0011201072 -0.0011566511 -6.869156e-35 0.0023421505
-0.0024962625 0.0003992004 -0.000676673 -0.002488213 -1.9970784e-32 0.005207048 0.0016803336 -6.871342e-35
0.0009505439 -0.0018944591 0.0051485077 -6.8611114e-35 0.00068926864 0.0022574817 0.00048221386 0.0034859146
6.8641236e-35 0.00027927436 0.0036417325 -0.0023287167 -0.00048377668 -0.002710184 4.5574204e-32 -0.002666423
0.00023091742 5.3457406e-37 0.001714602 -0.0025878658 -0.0021511978 6.87136e-35 0.0022541266 0.004316801
0.00060286454 0.00038446783 -6.869434e-35 -0.0022391232 0.0027751506 -0.0027147564 -0.0042661247 -0.008247863
-2.4405374e-32 0.0010924628 0.0013647337 1.6585304e-35 0.0048277136 -0.0102434615 -0.0027188081 6.8675215e-35
-0.0037778155 0.0029457994 0.000665251 -0.0024471192 -6.867448e-35 -0.0004731693 -0.0021963532 -0.0031530184
0.0032506555 0.002890495 3.4742453e-32 -0.0039973026 -0.0010080374 6.167113e-35 -0.0005418686 0.0008697008
0.0024639003 6.8655195e-35 0.007334692 0.0028599594 0.0014748445 0.001842822 6.8622685e-35 0.0024360376
0.0025023986 0.0055174674 -0.0042979596 0.00078314875 1.07764385e-32 0.0018321731 -0.0011427277 6.8723934e-35
0.0008479459 0.0033585494 0.0022694406 6.8594584e-35 0.0019897367 -0.00047447952 0.0019738153 0.00305849
6.8636093e-35 0.0032565626 0.0020774167 0.0022962855 -0.0036700473 -0.0067080096 7.475826e-33 0.0024224378
-0.0011187054 4.7321045e-36 -0.005951557 0.00026666696 0.0016579606 -6.8605604e-35 0.0072014406 0.0023346704
0.12349501 -0.10063484 -6.8663644e-35 0.0681927 0.022517039 -0.4138004 -0.2870023 0.049333926
-1.3110216e-29 -0.019395731 0.04241946 6.8619655e-35 0.0066543804 0.07567736 0.0007240295 5.801006e-32
0.060322315 -0.052004285 -0.00055987935 0.0014744545 6.864234e-35 0.0026892012 -0.0039010725 9.351922e-05
-0.00060764945 -0.0022361488 1.7439791e-32 -0.00076346146 0.0038434374 -6.872195e-35 -0.0027612378 0.009605666
0.003228675 -6.8605604e-35 0.0030791303 3.2211443e-05 -0.00015236426 -0.002510938 -6.862232e-35 4.0700063e-05
-0.0010613572 0.0015593192 0.0001915002 0.000400474 -9.342607e-34 0.0012530878 -0.0037795857 -6.8615155e-35
-0.0006322327 -0.0018320994 -0.002502654 -6.865703e-35 -0.002138517 0.0043840813 -0.0028330712 6.39028e-05
6.870938e-35 0.0013968961 -0.004374703 7.955838e-05 -0.0013023086 0.00301925 -1.9011187e-33 -0.0014919468
-0.0003027983 -5.2525966e-35 -0.0057987617 0.007937489 0.0026901166 -6.866658e-35 0.011322679 0.0027352772
0.0012700831 -0.0029424392 -6.867246e-35 -3.0962423e-05 0.0002737569 0.002576143 -0.00019768886 0.0024949298
-1.2032248e-32 -0.0030758253 0.0012310636 6.869946e-35 0.0033550297 0.0018045602 0.002202756 -6.865189e-35
0.0071165413 -0.0007091989 0.0005486103 0.0006689246 6.866603e-35 -0.00019358404 -0.0026436003 0.00047887323
0.0008357356 -0.00017948932 2.96317e-32 -0.00026017556 0.001489087 5.6474766e-35 0.0014453337 -0.00016962405
-0.0013803408 6.871965e-35 0.0004136755 -0.001362154 0.0006639397 -0.005364768 -6.868495e-35 -0.0017132843

mean_embedding.bias f4 [16]
00000000: 23e2 593b 1339 48bc 2d23 8abb f2e3 0bbc
00000010: 98da d1bb 1330 c0ba c5ab f4bb 2efc 85bb
00000020: 7081 a53e 7f05 213c 068e f3ba a804 d93b
00000030: 5c48 62ba fe52 713b c74c 123b 4970 3b3e
0.003324636 -0.012220639 -0.004215619 -0.008538233 -0.0064042322 -0.0014662765 -0.0074667656 -0.0040889
0.32325315 0.0098279705 -0.0018581755 0.0066228695 -0.0008631998 0.003682315 0.0022323595 0.18304552

logvar_embedding.weight f4 [16, 18]
00000000: 05f5 15bb 893c 82b9 0e6d b686 44f6 20bb
00000010: ee1f bcbb 318b 173a 9bcf 9c3a 1496 913b
00000020: 29c8 2409 1bd2 d73a ae66 c4b9 2a79 9f86
00000030: 02cd 7c3a d247 b03b 69ab feba aea2 b606
00000040: da33 b13b 566e 13bc 1ceb 0cba 3cd3 7f3b
00000050: 4e7a b686 509d 1dbb b53b 3fbb 778b f9bb
00000060: 80f4 b6bb c303 b83b 382d e48a bf8c 293b
00000070: b46a 693b a660 9406 b611 39bb 14ca e53b
00000080: 6787 9abb 0e75 b686 56fa 40bc 392f 46bc
00000090: 9e2e e43a 8405 3e3b 8e8e b686 9ea0 21bb
000000a0: 24cb c0bb c894 d9ba cdb1 35ba 098b 323b
000000b0: 444f 788a 2f08 213b b22d 813b 0e92 b606
000000c0: f363 063c ba79 7a3b ba37 aebb ee71 b686
000000d0: 3cea 73bb d935 01bc 81c6 4639 1c06 d73a
000000e0: 0e95 b606 944b c5ba 614a 02bc 2189 dbbb
000000f0: 8ef1 003b 609c 5c3b 2356 7c8b 83a0 5f3b
00000100: 0760 353b 7e38 5585 3618 d9ba 5432 cb3b
00000110: 3e73 c8b9 ee91 b686 30dd 0d3b ef3b 4ebc
00000120: 6a2b efb9 cd58 daba 2e8f b606 4108 48ba
00000130: be8a 86bb 9420 3abb 80b1 e93b 3cbe e83a
00000140: f6eb b209 4656 0f3a 12fd b23a 0e95 b686
00000150: f6de b53a 00f9 7936 c1e3 a2ba 8e62 b686
00000160: 0fba ec3a b1f2 99bb 2c8d 4cb9 cbdc 57bb
00000170: 4ea3 b606 e078 0cba 27fc 7d3a 71e4 d1ba
00000180: 68a2 243b b0b5 28bb 84c4 ac8a dfba a1ba
00000190: 40c5 843b 56ff a886 a6d7 30ba 684a 18bb
000001a0: 0edf af3a 2e70 b686 d449 1cbb 5074 76b8
000001b0: b34f 48bb 5178 24bb 0e98 b606 56b1 19bb
000001c0: 80f5 89bb 3833 aaba 72b9 9b3a ad2d 8eb9
000001d0: 251d cb09 28e0 163b a8cc 1cba e0c3 8206
000001e0: ec8f bc39 4aaf 5c3b a53a c639 4e97 b606
000001f0: 0493 8d37 e299 82bb a048 57ba 9f9f 343b
00000200: 4e7a b686 b565 66bb c2b1 02bc 5e7d 5bb9
00000210: 7f89 beba 73b1 4aba 8ba9 df89 f4a9 0ebb
00000220: e77c 8d39 7c75 5a05 bdb9 3fbb 5dd6 973b
00000230: 3650 e8bb ae9f b606 430c ee3b 82fa c9bb
00000240: d1f6 04bd 1c29 abbd 4e97 b606 804a fe3c
00000250: 4a58 bcbe bd60 16be 9b55 663d ac7b a7be
00000260: 98d5 270b 35b5 153a f245 703d f2a1 b606
00000270: c4a9 42be 066a bf3e a687 4a3e 0e82 b686
00000280: ed6b 96be 11b4 abbf 0037 673a 6e25 dbbb
00000290: 6ea6 b606 2ccd bebb db74 f7bb 2d99 9bbb
000002a0: 3a24 20bb febc 463b d18d c489 e8f3 e939
000002b0: a023 863b 60ea 8e86 99ca a33b 90bb dc3b
000002c0: 90dd 13bb 6e63 b686 7e6d 4cbc 33ee 1dbc
000002d0: 46c5 29bb 0c69 f639 6ead b606 353a 4bbb
000002e0: 5321 cbbb 02ad 07bc 0647 ad3b a803 d23a
000002f0: 9343 a108 d0bf 9939 e980 03bb acd8 9e06
00000300: da4d 8bbb 0ecb 813a 033c e4ba cea9 b606
00000310: 28ed ac3b e4d5 02bc 6259 e1ba fcd0 59bb
00000320: 6e87 b686 a862 18bb ec0a c4bb 5ed5 22ba
00000330: 8d73 c3ba 2afd fa39 9f0f d408 e258 e13a
00000340: 0ca5 393b 2cb5 b606 881c 263b 750c b33b
00000350: 257e 22bb 8eae b606 eb8b fb3b 0bb0 f8bb
00000360: 2c0c 7cbb 1e73 41b9 0e89 b606 ddbc 20bb
00000370: e208 adbb 0ccb 51bb 1cec 283a 01c3 9f3b
00000380: 9d1f cf09 ffc5 80ba 9e3f 3c3b 08d1 ab86
00000390: b1d4 a0bb c197 8139 fb6d 323b 0ea2 b686
000003a0: a534 1d3c b667 2dbc b97c 673a cc71 193a
000003b0: 6cb5 b686 4cea 12ba 124e fbba 1acf e4b8
000003c0: 8e68 f5ba d280 af3a af41 cb88 5a07 223b
000003d0: 6ca2 99b9 4abe a386 6209 ce3a 2219 fd3a
000003e0: 1e93 bbba 8e7a b686 2fcf 92bb a82c 27bc
000003f0: 71e1 ed39 1351 b2bb 8e91 b686 375b 9abb
-0.0022881639 -0.00024840634 -6.862103e-35 -0.0024560848 -0.005741111 0.0005780934 0.0011963727 0.0044429395
1.9834897e-33 0.0016465815 -0.00037460536 -5.998719e-35 0.00096435857 0.0053796554 -0.0019429746 6.869983e-35
0.0054077925 -0.008998474 -0.000537561 0.0039035818 -6.86405e-35 -0.0024050064 -0.0029179875 -0.0076155025
-0.005583346 0.005615683 -2.1972611e-32 0.0025871245 0.0035616579 5.5813425e-35 -0.0028239316 0.007012615
-0.0047158482 -6.863279e-35 -0.011778435 -0.01209622 0.0017408913 0.0028994987 -6.8670256e-35 -0.0024662386
-0.0058835912 -0.0016600126 -0.00069310964 0.0027243516 -1.1955674e-32 0.0024571528 0.003942215 6.86754e-35
0.008202541 0.0038219527 -0.0053167017 -6.8628196e-35 -0.0037218472 -0.007886373 0.000189567 0.0016405019
6.867981e-35 -0.0015052431 -0.007952304 -0.0066996966 0.0019675228 0.0033662543 -4.8598237e-32 0.0034122772
0.0027675645 -1.0025588e-35 -0.0016563002 0.006201068 -0.00038232835 -6.8675215e-35 0.002164673 -0.0125875315
-0.00045617978 -0.0016658545 6.8671175e-35 -0.00076306245 -0.004105895 -0.0028400766 0.0071317554 0.001775689
4.3073838e-33 0.0005467873 0.0013655743 -6.867981e-35 0.0013875652 3.7248828e-06 -0.0012427495 -6.8605604e-35
0.0018060821 -0.0046981205 -0.00019507547 -0.0032938 6.8700746e-35 -0.0005358588 0.0009688758 -0.0016013515
0.0025121216 -0.002574306 -1.6636918e-32 -0.0012339017 0.0040518343 -6.356976e-35 -0.00067460013 -0.002323771
0.0013417916 -6.8625624e-35 -0.0023847716 -5.8759295e-05 -0.0030565083 -0.0025096128 6.8684215e-35 -0.0023451648
-0.004210174 -0.0012985235 0.0011880829 -0.00027118382 4.889788e-33 0.002302179 -0.0005981424 4.918838e-35
0.00035965384 0.0033673816 0.00037809197 6.8683113e-35 1.687697e-05 -0.0039856294 -0.0008212421 0.0027560962
-6.86405e-35 -0.0035155837 -0.007976951 -0.0002093217 -0.0014536827 -0.00077321305 -5.3844735e-33 -0.002176878
0.00026986675 1.0271889e-35 -0.0029254996 0.0046337084 -0.00708964 6.869542e-35 0.0072646453 -0.006163896
-0.032461945 -0.0835745 6.8683113e-35 0.031041384 -0.3678611 -0.1468534 0.056233983 -0.32711542
3.232372e-32 0.0005710901 0.058660455 6.869875e-35 -0.19010073 0.37385577 0.19778308 -6.865189e-35
-0.29379216 -1.3414327 0.00088201463 -0.0066878116 6.870534e-35 -0.0058227982 -0.007551772 -0.0047484846
-0.0024435655 0.003032505 -4.7318647e-33 0.00044622947 0.0040936023 -5.3758846e-35 0.0049985168 0.0067362264
-0.0022562481 -6.860689e-35 -0.012477277 -0.009639311 -0.0025904938 0.00046999042 6.8715623e-35 -0.0031010036
-0.006199041 -0.008280994 0.0052880077 0.0016022818 9.705722e-34 0.00029325346 -0.002006585 5.9751365e-35
-0.004251224 0.0009902434 -0.0017412904 6.8710297e-35 0.0052772947 -0.007985566 -0.0017192776 -0.0033236137
-6.8659787e-35 -0.0023252163 -0.0059827473 -0.0006211604 -0.0014911756 0.00047872338 1.2762958e-33 0.0017192627
0.0028327135 6.8727e-35 0.0025346596 0.0054641315 -0.0024794426 6.8717276e-35 0.0076765916 -0.0075893453
-0.0038459403 -0.00018448799 6.8662175e-35 -0.0024526634 -0.0052806 -0.0032011895 0.00064438744 0.004875541
4.9863166e-33 -0.0009824632 0.0028724442 -6.4630195e-35 -0.0049081673 0.00024717863 0.0027226198 -6.869891e-35
0.009595071 -0.010583809 0.0008830536 0.0005853444 -6.8727366e-35 -0.0005604371 -0.0019173047 -0.00010910463
-0.0018723176 0.0013389832 -1.223306e-33 0.002472362 -0.00029303448 -6.159339e-35 0.0015719349 0.0019309858
-0.0014310812 -6.864087e-35 -0.0044802646 -0.010203518 0.0004537213 -0.0054417937 -6.8674664e-35 -0.0047105807

logvar_embedding.bias f4 [16]
00000000: fd79 f93b c29c b53b cf17 5f3c f27c 363c
00000010: 8084 5b3c fa8c 5a3b f9b0 0c3c da9c 473c
00000020: aaa7 75c0 bd7f 5f3c 49fc 163c b836 103c
00000030: bd74 583c e6d9 193c df8d 343c 9462 7dc0
0.007613419 0.0055423686 0.013616516 0.011138188 0.01339829 0.0033348189 0.008587115 0.012183392
-3.8383584 0.013641295 0.009215423 0.0088021085 0.013211426 0.00939033 0.011020153 -3.9591417
